<?xml version="1.0" ?>
<net name="torch-jit-export" version="11">
	<layers>
		<layer id="2" name="input_ids" type="Parameter" version="opset1">
			<data shape="1,128" element_type="i64"/>
			<rt_info>
				<attribute name="fused_names" version="0" value="input_ids"/>
				<attribute name="old_api_map_element_type" version="0" value="i32"/>
			</rt_info>
			<output>
				<port id="0" precision="I64" names="input_ids">
					<dim>1</dim>
					<dim>128</dim>
				</port>
			</output>
		</layer>
		<layer id="1" name="attention_mask" type="Parameter" version="opset1">
			<data shape="1,128" element_type="i64"/>
			<rt_info>
				<attribute name="fused_names" version="0" value="attention_mask"/>
				<attribute name="old_api_map_element_type" version="0" value="i32"/>
			</rt_info>
			<output>
				<port id="0" precision="I64" names="attention_mask">
					<dim>1</dim>
					<dim>128</dim>
				</port>
			</output>
		</layer>
		<layer id="0" name="token_type_ids" type="Parameter" version="opset1">
			<data shape="1,128" element_type="i64"/>
			<rt_info>
				<attribute name="fused_names" version="0" value="token_type_ids"/>
				<attribute name="old_api_map_element_type" version="0" value="i32"/>
			</rt_info>
			<output>
				<port id="0" precision="I64" names="token_type_ids">
					<dim>1</dim>
					<dim>128</dim>
				</port>
			</output>
		</layer>
		<layer id="3" name="embeddings.word_embeddings.weight" type="Const" version="opset1">
			<data element_type="f32" shape="30522, 128" offset="0" size="15627264"/>
			<rt_info>
				<attribute name="fused_names" version="0" value="embeddings.word_embeddings.weight"/>
			</rt_info>
			<output>
				<port id="0" precision="FP32" names="embeddings.word_embeddings.weight">
					<dim>30522</dim>
					<dim>128</dim>
				</port>
			</output>
		</layer>
		<layer id="4" name="Constant_103" type="Const" version="opset1">
			<data element_type="i64" shape="" offset="15627264" size="8"/>
			<rt_info>
				<attribute name="fused_names" version="0" value="Constant_103"/>
			</rt_info>
			<output>
				<port id="0" precision="I64"/>
			</output>
		</layer>
		<layer id="5" name="Gather_15" type="Gather" version="opset8">
			<data batch_dims="0"/>
			<rt_info>
				<attribute name="fused_names" version="0" value="Gather_15"/>
			</rt_info>
			<input>
				<port id="0" precision="FP32">
					<dim>30522</dim>
					<dim>128</dim>
				</port>
				<port id="1" precision="I64">
					<dim>1</dim>
					<dim>128</dim>
				</port>
				<port id="2" precision="I64"/>
			</input>
			<output>
				<port id="3" precision="FP32" names="62">
					<dim>1</dim>
					<dim>128</dim>
					<dim>128</dim>
				</port>
			</output>
		</layer>
		<layer id="6" name="embeddings.token_type_embeddings.weight" type="Const" version="opset1">
			<data element_type="f32" shape="2, 128" offset="15627272" size="1024"/>
			<rt_info>
				<attribute name="fused_names" version="0" value="embeddings.token_type_embeddings.weight"/>
			</rt_info>
			<output>
				<port id="0" precision="FP32" names="embeddings.token_type_embeddings.weight">
					<dim>2</dim>
					<dim>128</dim>
				</port>
			</output>
		</layer>
		<layer id="7" name="Constant_105" type="Const" version="opset1">
			<data element_type="i64" shape="" offset="15627264" size="8"/>
			<rt_info>
				<attribute name="fused_names" version="0" value="Constant_105"/>
			</rt_info>
			<output>
				<port id="0" precision="I64"/>
			</output>
		</layer>
		<layer id="8" name="Gather_16" type="Gather" version="opset8">
			<data batch_dims="0"/>
			<rt_info>
				<attribute name="fused_names" version="0" value="Gather_16"/>
			</rt_info>
			<input>
				<port id="0" precision="FP32">
					<dim>2</dim>
					<dim>128</dim>
				</port>
				<port id="1" precision="I64">
					<dim>1</dim>
					<dim>128</dim>
				</port>
				<port id="2" precision="I64"/>
			</input>
			<output>
				<port id="3" precision="FP32" names="63">
					<dim>1</dim>
					<dim>128</dim>
					<dim>128</dim>
				</port>
			</output>
		</layer>
		<layer id="9" name="Add_17" type="Add" version="opset1">
			<data auto_broadcast="numpy"/>
			<rt_info>
				<attribute name="fused_names" version="0" value="Add_17"/>
			</rt_info>
			<input>
				<port id="0" precision="FP32">
					<dim>1</dim>
					<dim>128</dim>
					<dim>128</dim>
				</port>
				<port id="1" precision="FP32">
					<dim>1</dim>
					<dim>128</dim>
					<dim>128</dim>
				</port>
			</input>
			<output>
				<port id="2" precision="FP32" names="64">
					<dim>1</dim>
					<dim>128</dim>
					<dim>128</dim>
				</port>
			</output>
		</layer>
		<layer id="10" name="embeddings.position_embeddings.weight" type="Const" version="opset1">
			<data element_type="f32" shape="512, 128" offset="15628296" size="262144"/>
			<rt_info>
				<attribute name="fused_names" version="0" value="embeddings.position_embeddings.weight"/>
			</rt_info>
			<output>
				<port id="0" precision="FP32" names="embeddings.position_embeddings.weight">
					<dim>512</dim>
					<dim>128</dim>
				</port>
			</output>
		</layer>
		<layer id="11" name="embeddings.position_ids" type="Const" version="opset1">
			<data element_type="i64" shape="1, 512" offset="15890440" size="4096"/>
			<rt_info>
				<attribute name="fused_names" version="0" value="embeddings.position_ids"/>
			</rt_info>
			<output>
				<port id="0" precision="I64" names="embeddings.position_ids">
					<dim>1</dim>
					<dim>512</dim>
				</port>
			</output>
		</layer>
		<layer id="12" name="Constant_4765" type="Const" version="opset1">
			<data element_type="i64" shape="2" offset="15894536" size="16"/>
			<rt_info>
				<attribute name="fused_names" version="0" value="Slice_14"/>
			</rt_info>
			<output>
				<port id="0" precision="I64">
					<dim>2</dim>
				</port>
			</output>
		</layer>
		<layer id="13" name="Constant_4766" type="Const" version="opset1">
			<data element_type="i64" shape="2" offset="15894536" size="16"/>
			<rt_info>
				<attribute name="fused_names" version="0" value="Slice_14"/>
			</rt_info>
			<output>
				<port id="0" precision="I64">
					<dim>2</dim>
				</port>
			</output>
		</layer>
		<layer id="14" name="Constant_4762" type="Const" version="opset1">
			<data element_type="i64" shape="1" offset="15894552" size="8"/>
			<rt_info>
				<attribute name="fused_names" version="0" value="Slice_14"/>
			</rt_info>
			<output>
				<port id="0" precision="I64">
					<dim>1</dim>
				</port>
			</output>
		</layer>
		<layer id="15" name="Shape_7" type="ShapeOf" version="opset3">
			<data output_type="i64"/>
			<rt_info>
				<attribute name="fused_names" version="0" value="Shape_7"/>
			</rt_info>
			<input>
				<port id="0" precision="I64">
					<dim>1</dim>
					<dim>128</dim>
				</port>
			</input>
			<output>
				<port id="1" precision="I64" names="50">
					<dim>2</dim>
				</port>
			</output>
		</layer>
		<layer id="16" name="Constant_8" type="Const" version="opset1">
			<data element_type="i64" shape="" offset="15894552" size="8"/>
			<rt_info>
				<attribute name="fused_names" version="0" value="Constant_8"/>
			</rt_info>
			<output>
				<port id="0" precision="I64" names="51"/>
			</output>
		</layer>
		<layer id="17" name="Constant_70" type="Const" version="opset1">
			<data element_type="i64" shape="" offset="15627264" size="8"/>
			<rt_info>
				<attribute name="fused_names" version="0" value="Constant_70"/>
			</rt_info>
			<output>
				<port id="0" precision="I64"/>
			</output>
		</layer>
		<layer id="18" name="Gather_9" type="Gather" version="opset8">
			<data batch_dims="0"/>
			<rt_info>
				<attribute name="fused_names" version="0" value="Add_11, Constant_10, Constant_70, Constant_8, Gather_9"/>
			</rt_info>
			<input>
				<port id="0" precision="I64">
					<dim>2</dim>
				</port>
				<port id="1" precision="I64"/>
				<port id="2" precision="I64"/>
			</input>
			<output>
				<port id="3" precision="I64" names="52,54"/>
			</output>
		</layer>
		<layer id="19" name="Constant_74" type="Const" version="opset1">
			<data element_type="i64" shape="1" offset="15627264" size="8"/>
			<rt_info>
				<attribute name="fused_names" version="0" value="Constant_74"/>
			</rt_info>
			<output>
				<port id="0" precision="I64">
					<dim>1</dim>
				</port>
			</output>
		</layer>
		<layer id="20" name="Unsqueeze_12" type="Unsqueeze" version="opset1">
			<rt_info>
				<attribute name="fused_names" version="0" value="Constant_74, Unsqueeze_12"/>
			</rt_info>
			<input>
				<port id="0" precision="I64"/>
				<port id="1" precision="I64">
					<dim>1</dim>
				</port>
			</input>
			<output>
				<port id="2" precision="I64" names="58">
					<dim>1</dim>
				</port>
			</output>
		</layer>
		<layer id="21" name="Constant_4761" type="Const" version="opset1">
			<data element_type="i32" shape="1" offset="15894560" size="4"/>
			<rt_info>
				<attribute name="fused_names" version="0" value="Slice_14"/>
			</rt_info>
			<output>
				<port id="0" precision="I32">
					<dim>1</dim>
				</port>
			</output>
		</layer>
		<layer id="22" name="ScatterUpdate_4767" type="ScatterUpdate" version="opset3">
			<rt_info>
				<attribute name="fused_names" version="0" value="Slice_14"/>
			</rt_info>
			<input>
				<port id="0" precision="I64">
					<dim>2</dim>
				</port>
				<port id="1" precision="I64">
					<dim>1</dim>
				</port>
				<port id="2" precision="I64">
					<dim>1</dim>
				</port>
				<port id="3" precision="I32">
					<dim>1</dim>
				</port>
			</input>
			<output>
				<port id="4" precision="I64">
					<dim>2</dim>
				</port>
			</output>
		</layer>
		<layer id="23" name="Constant_4770" type="Const" version="opset1">
			<data element_type="i64" shape="2" offset="15894564" size="16"/>
			<rt_info>
				<attribute name="fused_names" version="0" value="Slice_14"/>
			</rt_info>
			<output>
				<port id="0" precision="I64">
					<dim>2</dim>
				</port>
			</output>
		</layer>
		<layer id="24" name="Slice_14" type="StridedSlice" version="opset1">
			<data begin_mask="1, 0" end_mask="1, 0" new_axis_mask="" shrink_axis_mask="" ellipsis_mask=""/>
			<rt_info>
				<attribute name="fused_names" version="0" value="Slice_14"/>
			</rt_info>
			<input>
				<port id="0" precision="I64">
					<dim>1</dim>
					<dim>512</dim>
				</port>
				<port id="1" precision="I64">
					<dim>2</dim>
				</port>
				<port id="2" precision="I64">
					<dim>2</dim>
				</port>
				<port id="3" precision="I64">
					<dim>2</dim>
				</port>
			</input>
			<output>
				<port id="4" precision="I64" names="61">
					<dim>1</dim>
					<dim>128</dim>
				</port>
			</output>
		</layer>
		<layer id="25" name="Constant_108" type="Const" version="opset1">
			<data element_type="i64" shape="" offset="15627264" size="8"/>
			<rt_info>
				<attribute name="fused_names" version="0" value="Constant_108"/>
			</rt_info>
			<output>
				<port id="0" precision="I64"/>
			</output>
		</layer>
		<layer id="26" name="Gather_18" type="Gather" version="opset8">
			<data batch_dims="0"/>
			<rt_info>
				<attribute name="fused_names" version="0" value="Gather_18"/>
			</rt_info>
			<input>
				<port id="0" precision="FP32">
					<dim>512</dim>
					<dim>128</dim>
				</port>
				<port id="1" precision="I64">
					<dim>1</dim>
					<dim>128</dim>
				</port>
				<port id="2" precision="I64"/>
			</input>
			<output>
				<port id="3" precision="FP32" names="65">
					<dim>1</dim>
					<dim>128</dim>
					<dim>128</dim>
				</port>
			</output>
		</layer>
		<layer id="27" name="Add_19" type="Add" version="opset1">
			<data auto_broadcast="numpy"/>
			<rt_info>
				<attribute name="fused_names" version="0" value="Add_19"/>
			</rt_info>
			<input>
				<port id="0" precision="FP32">
					<dim>1</dim>
					<dim>128</dim>
					<dim>128</dim>
				</port>
				<port id="1" precision="FP32">
					<dim>1</dim>
					<dim>128</dim>
					<dim>128</dim>
				</port>
			</input>
			<output>
				<port id="2" precision="FP32" names="66">
					<dim>1</dim>
					<dim>128</dim>
					<dim>128</dim>
				</port>
			</output>
		</layer>
		<layer id="28" name="Constant_111" type="Const" version="opset1">
			<data element_type="i64" shape="1" offset="15894580" size="8"/>
			<rt_info>
				<attribute name="fused_names" version="0" value="Constant_111"/>
			</rt_info>
			<output>
				<port id="0" precision="I64">
					<dim>1</dim>
				</port>
			</output>
		</layer>
		<layer id="29" name="Div_28" type="MVN" version="opset6">
			<data eps="9.999999960041972e-13" normalize_variance="true" eps_mode="INSIDE_SQRT"/>
			<rt_info>
				<attribute name="fused_names" version="0" value="Add_26, Div_28, Pow_23, ReduceMean_20, ReduceMean_24, Sqrt_27, Sub_21"/>
			</rt_info>
			<input>
				<port id="0" precision="FP32">
					<dim>1</dim>
					<dim>128</dim>
					<dim>128</dim>
				</port>
				<port id="1" precision="I64">
					<dim>1</dim>
				</port>
			</input>
			<output>
				<port id="2" precision="FP32" names="75">
					<dim>1</dim>
					<dim>128</dim>
					<dim>128</dim>
				</port>
			</output>
		</layer>
		<layer id="30" name="Constant_5410" type="Const" version="opset1">
			<data element_type="f32" shape="1, 1, 128" offset="15894588" size="512"/>
			<output>
				<port id="0" precision="FP32">
					<dim>1</dim>
					<dim>1</dim>
					<dim>128</dim>
				</port>
			</output>
		</layer>
		<layer id="31" name="Mul_29" type="Multiply" version="opset1">
			<data auto_broadcast="numpy"/>
			<rt_info>
				<attribute name="fused_names" version="0" value="Mul_29"/>
			</rt_info>
			<input>
				<port id="0" precision="FP32">
					<dim>1</dim>
					<dim>128</dim>
					<dim>128</dim>
				</port>
				<port id="1" precision="FP32">
					<dim>1</dim>
					<dim>1</dim>
					<dim>128</dim>
				</port>
			</input>
			<output>
				<port id="2" precision="FP32" names="76">
					<dim>1</dim>
					<dim>128</dim>
					<dim>128</dim>
				</port>
			</output>
		</layer>
		<layer id="32" name="Constant_5411" type="Const" version="opset1">
			<data element_type="f32" shape="1, 1, 128" offset="15895100" size="512"/>
			<output>
				<port id="0" precision="FP32">
					<dim>1</dim>
					<dim>1</dim>
					<dim>128</dim>
				</port>
			</output>
		</layer>
		<layer id="33" name="Add_30" type="Add" version="opset1">
			<data auto_broadcast="numpy"/>
			<rt_info>
				<attribute name="fused_names" version="0" value="Add_30"/>
			</rt_info>
			<input>
				<port id="0" precision="FP32">
					<dim>1</dim>
					<dim>128</dim>
					<dim>128</dim>
				</port>
				<port id="1" precision="FP32">
					<dim>1</dim>
					<dim>1</dim>
					<dim>128</dim>
				</port>
			</input>
			<output>
				<port id="2" precision="FP32" names="77">
					<dim>1</dim>
					<dim>128</dim>
					<dim>128</dim>
				</port>
			</output>
		</layer>
		<layer id="34" name="Constant_5168" type="Const" version="opset1">
			<data element_type="f32" shape="128, 128" offset="15895612" size="65536"/>
			<rt_info>
				<attribute name="fused_names" version="0" value="312, MatMul_31"/>
			</rt_info>
			<output>
				<port id="0" precision="FP32">
					<dim>128</dim>
					<dim>128</dim>
				</port>
			</output>
		</layer>
		<layer id="35" name="MatMul_31" type="MatMul" version="opset1">
			<data transpose_a="false" transpose_b="true"/>
			<rt_info>
				<attribute name="fused_names" version="0" value="312, MatMul_31"/>
			</rt_info>
			<input>
				<port id="0" precision="FP32">
					<dim>1</dim>
					<dim>128</dim>
					<dim>128</dim>
				</port>
				<port id="1" precision="FP32">
					<dim>128</dim>
					<dim>128</dim>
				</port>
			</input>
			<output>
				<port id="2" precision="FP32" names="79">
					<dim>1</dim>
					<dim>128</dim>
					<dim>128</dim>
				</port>
			</output>
		</layer>
		<layer id="36" name="Constant_5412" type="Const" version="opset1">
			<data element_type="f32" shape="1, 1, 128" offset="15961148" size="512"/>
			<output>
				<port id="0" precision="FP32">
					<dim>1</dim>
					<dim>1</dim>
					<dim>128</dim>
				</port>
			</output>
		</layer>
		<layer id="37" name="Add_32" type="Add" version="opset1">
			<data auto_broadcast="numpy"/>
			<rt_info>
				<attribute name="fused_names" version="0" value="Add_32"/>
			</rt_info>
			<input>
				<port id="0" precision="FP32">
					<dim>1</dim>
					<dim>128</dim>
					<dim>128</dim>
				</port>
				<port id="1" precision="FP32">
					<dim>1</dim>
					<dim>1</dim>
					<dim>128</dim>
				</port>
			</input>
			<output>
				<port id="2" precision="FP32" names="80">
					<dim>1</dim>
					<dim>128</dim>
					<dim>128</dim>
				</port>
			</output>
		</layer>
		<layer id="38" name="Concat_66" type="Const" version="opset1">
			<data element_type="i64" shape="4" offset="15961660" size="32"/>
			<rt_info>
				<attribute name="fused_names" version="0" value="319, 320, Concat_66"/>
			</rt_info>
			<output>
				<port id="0" precision="I64">
					<dim>4</dim>
				</port>
			</output>
		</layer>
		<layer id="39" name="Reshape_67" type="Reshape" version="opset1">
			<data special_zero="true"/>
			<rt_info>
				<attribute name="fused_names" version="0" value="Reshape_67"/>
			</rt_info>
			<input>
				<port id="0" precision="FP32">
					<dim>1</dim>
					<dim>128</dim>
					<dim>128</dim>
				</port>
				<port id="1" precision="I64">
					<dim>4</dim>
				</port>
			</input>
			<output>
				<port id="2" precision="FP32" names="129">
					<dim>1</dim>
					<dim>128</dim>
					<dim>2</dim>
					<dim>64</dim>
				</port>
			</output>
		</layer>
		<layer id="40" name="Constant_315" type="Const" version="opset1">
			<data element_type="i64" shape="4" offset="15961692" size="32"/>
			<rt_info>
				<attribute name="fused_names" version="0" value="Constant_315"/>
			</rt_info>
			<output>
				<port id="0" precision="I64">
					<dim>4</dim>
				</port>
			</output>
		</layer>
		<layer id="41" name="Transpose_68" type="Transpose" version="opset1">
			<rt_info>
				<attribute name="fused_names" version="0" value="Transpose_68"/>
			</rt_info>
			<input>
				<port id="0" precision="FP32">
					<dim>1</dim>
					<dim>128</dim>
					<dim>2</dim>
					<dim>64</dim>
				</port>
				<port id="1" precision="I64">
					<dim>4</dim>
				</port>
			</input>
			<output>
				<port id="2" precision="FP32" names="130">
					<dim>1</dim>
					<dim>2</dim>
					<dim>128</dim>
					<dim>64</dim>
				</port>
			</output>
		</layer>
		<layer id="42" name="Constant_5175" type="Const" version="opset1">
			<data element_type="f32" shape="128, 128" offset="15961724" size="65536"/>
			<rt_info>
				<attribute name="fused_names" version="0" value="313, MatMul_33"/>
			</rt_info>
			<output>
				<port id="0" precision="FP32">
					<dim>128</dim>
					<dim>128</dim>
				</port>
			</output>
		</layer>
		<layer id="43" name="MatMul_33" type="MatMul" version="opset1">
			<data transpose_a="false" transpose_b="true"/>
			<rt_info>
				<attribute name="fused_names" version="0" value="313, MatMul_33"/>
			</rt_info>
			<input>
				<port id="0" precision="FP32">
					<dim>1</dim>
					<dim>128</dim>
					<dim>128</dim>
				</port>
				<port id="1" precision="FP32">
					<dim>128</dim>
					<dim>128</dim>
				</port>
			</input>
			<output>
				<port id="2" precision="FP32" names="82">
					<dim>1</dim>
					<dim>128</dim>
					<dim>128</dim>
				</port>
			</output>
		</layer>
		<layer id="44" name="Constant_5413" type="Const" version="opset1">
			<data element_type="f32" shape="1, 1, 128" offset="16027260" size="512"/>
			<output>
				<port id="0" precision="FP32">
					<dim>1</dim>
					<dim>1</dim>
					<dim>128</dim>
				</port>
			</output>
		</layer>
		<layer id="45" name="Add_34" type="Add" version="opset1">
			<data auto_broadcast="numpy"/>
			<rt_info>
				<attribute name="fused_names" version="0" value="Add_34"/>
			</rt_info>
			<input>
				<port id="0" precision="FP32">
					<dim>1</dim>
					<dim>128</dim>
					<dim>128</dim>
				</port>
				<port id="1" precision="FP32">
					<dim>1</dim>
					<dim>1</dim>
					<dim>128</dim>
				</port>
			</input>
			<output>
				<port id="2" precision="FP32" names="83">
					<dim>1</dim>
					<dim>128</dim>
					<dim>128</dim>
				</port>
			</output>
		</layer>
		<layer id="46" name="Concat_43" type="Const" version="opset1">
			<data element_type="i64" shape="4" offset="15961660" size="32"/>
			<rt_info>
				<attribute name="fused_names" version="0" value="314, 315, Concat_43"/>
			</rt_info>
			<output>
				<port id="0" precision="I64">
					<dim>4</dim>
				</port>
			</output>
		</layer>
		<layer id="47" name="Reshape_44" type="Reshape" version="opset1">
			<data special_zero="true"/>
			<rt_info>
				<attribute name="fused_names" version="0" value="Reshape_44"/>
			</rt_info>
			<input>
				<port id="0" precision="FP32">
					<dim>1</dim>
					<dim>128</dim>
					<dim>128</dim>
				</port>
				<port id="1" precision="I64">
					<dim>4</dim>
				</port>
			</input>
			<output>
				<port id="2" precision="FP32" names="97">
					<dim>1</dim>
					<dim>128</dim>
					<dim>2</dim>
					<dim>64</dim>
				</port>
			</output>
		</layer>
		<layer id="48" name="Constant_317" type="Const" version="opset1">
			<data element_type="i64" shape="4" offset="16027772" size="32"/>
			<rt_info>
				<attribute name="fused_names" version="0" value="Constant_317"/>
			</rt_info>
			<output>
				<port id="0" precision="I64">
					<dim>4</dim>
				</port>
			</output>
		</layer>
		<layer id="49" name="Transpose_69" type="Transpose" version="opset1">
			<rt_info>
				<attribute name="fused_names" version="0" value="Transpose_69"/>
			</rt_info>
			<input>
				<port id="0" precision="FP32">
					<dim>1</dim>
					<dim>128</dim>
					<dim>2</dim>
					<dim>64</dim>
				</port>
				<port id="1" precision="I64">
					<dim>4</dim>
				</port>
			</input>
			<output>
				<port id="2" precision="FP32" names="131">
					<dim>1</dim>
					<dim>2</dim>
					<dim>64</dim>
					<dim>128</dim>
				</port>
			</output>
		</layer>
		<layer id="50" name="Constant_5414" type="Const" version="opset1">
			<data element_type="f32" shape="1, 1, 1, 1" offset="16027804" size="4"/>
			<output>
				<port id="0" precision="FP32">
					<dim>1</dim>
					<dim>1</dim>
					<dim>1</dim>
					<dim>1</dim>
				</port>
			</output>
		</layer>
		<layer id="51" name="Multiply_5279" type="Multiply" version="opset1">
			<data auto_broadcast="numpy"/>
			<rt_info>
				<attribute name="fused_names" version="0" value="Constant_71, Div_72, MatMul_70, Transpose_69"/>
			</rt_info>
			<input>
				<port id="0" precision="FP32">
					<dim>1</dim>
					<dim>2</dim>
					<dim>64</dim>
					<dim>128</dim>
				</port>
				<port id="1" precision="FP32">
					<dim>1</dim>
					<dim>1</dim>
					<dim>1</dim>
					<dim>1</dim>
				</port>
			</input>
			<output>
				<port id="2" precision="FP32">
					<dim>1</dim>
					<dim>2</dim>
					<dim>64</dim>
					<dim>128</dim>
				</port>
			</output>
		</layer>
		<layer id="52" name="Div_72" type="MatMul" version="opset1">
			<data transpose_a="false" transpose_b="false"/>
			<rt_info>
				<attribute name="fused_names" version="0" value="Constant_71, Div_72, MatMul_70, Transpose_69"/>
			</rt_info>
			<input>
				<port id="0" precision="FP32">
					<dim>1</dim>
					<dim>2</dim>
					<dim>128</dim>
					<dim>64</dim>
				</port>
				<port id="1" precision="FP32">
					<dim>1</dim>
					<dim>2</dim>
					<dim>64</dim>
					<dim>128</dim>
				</port>
			</input>
			<output>
				<port id="2" precision="FP32" names="134">
					<dim>1</dim>
					<dim>2</dim>
					<dim>128</dim>
					<dim>128</dim>
				</port>
			</output>
		</layer>
		<layer id="53" name="Constant_5415" type="Const" version="opset1">
			<data element_type="f32" shape="1, 1, 1, 1" offset="16027808" size="4"/>
			<output>
				<port id="0" precision="FP32">
					<dim>1</dim>
					<dim>1</dim>
					<dim>1</dim>
					<dim>1</dim>
				</port>
			</output>
		</layer>
		<layer id="54" name="Constant_59" type="Const" version="opset1">
			<data element_type="i64" shape="1" offset="15894552" size="8"/>
			<rt_info>
				<attribute name="fused_names" version="0" value="Constant_59"/>
			</rt_info>
			<output>
				<port id="0" precision="I64">
					<dim>1</dim>
				</port>
			</output>
		</layer>
		<layer id="55" name="Unsqueeze_0" type="Unsqueeze" version="opset1">
			<rt_info>
				<attribute name="fused_names" version="0" value="Unsqueeze_0"/>
			</rt_info>
			<input>
				<port id="0" precision="I64">
					<dim>1</dim>
					<dim>128</dim>
				</port>
				<port id="1" precision="I64">
					<dim>1</dim>
				</port>
			</input>
			<output>
				<port id="2" precision="I64" names="43">
					<dim>1</dim>
					<dim>1</dim>
					<dim>128</dim>
				</port>
			</output>
		</layer>
		<layer id="56" name="Constant_61" type="Const" version="opset1">
			<data element_type="i64" shape="1" offset="16027812" size="8"/>
			<rt_info>
				<attribute name="fused_names" version="0" value="Constant_61"/>
			</rt_info>
			<output>
				<port id="0" precision="I64">
					<dim>1</dim>
				</port>
			</output>
		</layer>
		<layer id="57" name="Unsqueeze_1" type="Unsqueeze" version="opset1">
			<rt_info>
				<attribute name="fused_names" version="0" value="Unsqueeze_1"/>
			</rt_info>
			<input>
				<port id="0" precision="I64">
					<dim>1</dim>
					<dim>1</dim>
					<dim>128</dim>
				</port>
				<port id="1" precision="I64">
					<dim>1</dim>
				</port>
			</input>
			<output>
				<port id="2" precision="I64" names="44">
					<dim>1</dim>
					<dim>1</dim>
					<dim>1</dim>
					<dim>128</dim>
				</port>
			</output>
		</layer>
		<layer id="58" name="Cast_2" type="Convert" version="opset1">
			<data destination_type="f32"/>
			<rt_info>
				<attribute name="fused_names" version="0" value="Cast_2"/>
			</rt_info>
			<input>
				<port id="0" precision="I64">
					<dim>1</dim>
					<dim>1</dim>
					<dim>1</dim>
					<dim>128</dim>
				</port>
			</input>
			<output>
				<port id="1" precision="FP32" names="45">
					<dim>1</dim>
					<dim>1</dim>
					<dim>1</dim>
					<dim>128</dim>
				</port>
			</output>
		</layer>
		<layer id="59" name="Sub_4" type="Subtract" version="opset1">
			<data auto_broadcast="numpy"/>
			<rt_info>
				<attribute name="fused_names" version="0" value="Sub_4"/>
			</rt_info>
			<input>
				<port id="0" precision="FP32">
					<dim>1</dim>
					<dim>1</dim>
					<dim>1</dim>
					<dim>1</dim>
				</port>
				<port id="1" precision="FP32">
					<dim>1</dim>
					<dim>1</dim>
					<dim>1</dim>
					<dim>128</dim>
				</port>
			</input>
			<output>
				<port id="2" precision="FP32" names="47">
					<dim>1</dim>
					<dim>1</dim>
					<dim>1</dim>
					<dim>128</dim>
				</port>
			</output>
		</layer>
		<layer id="60" name="Constant_5416" type="Const" version="opset1">
			<data element_type="f32" shape="1, 1, 1, 1" offset="16027820" size="4"/>
			<output>
				<port id="0" precision="FP32">
					<dim>1</dim>
					<dim>1</dim>
					<dim>1</dim>
					<dim>1</dim>
				</port>
			</output>
		</layer>
		<layer id="61" name="Mul_6" type="Multiply" version="opset1">
			<data auto_broadcast="numpy"/>
			<rt_info>
				<attribute name="fused_names" version="0" value="Mul_6"/>
			</rt_info>
			<input>
				<port id="0" precision="FP32">
					<dim>1</dim>
					<dim>1</dim>
					<dim>1</dim>
					<dim>128</dim>
				</port>
				<port id="1" precision="FP32">
					<dim>1</dim>
					<dim>1</dim>
					<dim>1</dim>
					<dim>1</dim>
				</port>
			</input>
			<output>
				<port id="2" precision="FP32" names="49">
					<dim>1</dim>
					<dim>1</dim>
					<dim>1</dim>
					<dim>128</dim>
				</port>
			</output>
		</layer>
		<layer id="62" name="Add_73" type="Add" version="opset1">
			<data auto_broadcast="numpy"/>
			<rt_info>
				<attribute name="fused_names" version="0" value="Add_73"/>
			</rt_info>
			<input>
				<port id="0" precision="FP32">
					<dim>1</dim>
					<dim>2</dim>
					<dim>128</dim>
					<dim>128</dim>
				</port>
				<port id="1" precision="FP32">
					<dim>1</dim>
					<dim>1</dim>
					<dim>1</dim>
					<dim>128</dim>
				</port>
			</input>
			<output>
				<port id="2" precision="FP32" names="135">
					<dim>1</dim>
					<dim>2</dim>
					<dim>128</dim>
					<dim>128</dim>
				</port>
			</output>
		</layer>
		<layer id="63" name="Softmax_74" type="SoftMax" version="opset8">
			<data axis="3"/>
			<rt_info>
				<attribute name="fused_names" version="0" value="Softmax_74"/>
			</rt_info>
			<input>
				<port id="0" precision="FP32">
					<dim>1</dim>
					<dim>2</dim>
					<dim>128</dim>
					<dim>128</dim>
				</port>
			</input>
			<output>
				<port id="1" precision="FP32" names="136">
					<dim>1</dim>
					<dim>2</dim>
					<dim>128</dim>
					<dim>128</dim>
				</port>
			</output>
		</layer>
		<layer id="64" name="Constant_5182" type="Const" version="opset1">
			<data element_type="f32" shape="128, 128" offset="16027824" size="65536"/>
			<rt_info>
				<attribute name="fused_names" version="0" value="316, MatMul_45"/>
			</rt_info>
			<output>
				<port id="0" precision="FP32">
					<dim>128</dim>
					<dim>128</dim>
				</port>
			</output>
		</layer>
		<layer id="65" name="MatMul_45" type="MatMul" version="opset1">
			<data transpose_a="false" transpose_b="true"/>
			<rt_info>
				<attribute name="fused_names" version="0" value="316, MatMul_45"/>
			</rt_info>
			<input>
				<port id="0" precision="FP32">
					<dim>1</dim>
					<dim>128</dim>
					<dim>128</dim>
				</port>
				<port id="1" precision="FP32">
					<dim>128</dim>
					<dim>128</dim>
				</port>
			</input>
			<output>
				<port id="2" precision="FP32" names="99">
					<dim>1</dim>
					<dim>128</dim>
					<dim>128</dim>
				</port>
			</output>
		</layer>
		<layer id="66" name="Constant_5417" type="Const" version="opset1">
			<data element_type="f32" shape="1, 1, 128" offset="16093360" size="512"/>
			<output>
				<port id="0" precision="FP32">
					<dim>1</dim>
					<dim>1</dim>
					<dim>128</dim>
				</port>
			</output>
		</layer>
		<layer id="67" name="Add_46" type="Add" version="opset1">
			<data auto_broadcast="numpy"/>
			<rt_info>
				<attribute name="fused_names" version="0" value="Add_46"/>
			</rt_info>
			<input>
				<port id="0" precision="FP32">
					<dim>1</dim>
					<dim>128</dim>
					<dim>128</dim>
				</port>
				<port id="1" precision="FP32">
					<dim>1</dim>
					<dim>1</dim>
					<dim>128</dim>
				</port>
			</input>
			<output>
				<port id="2" precision="FP32" names="100">
					<dim>1</dim>
					<dim>128</dim>
					<dim>128</dim>
				</port>
			</output>
		</layer>
		<layer id="68" name="Concat_55" type="Const" version="opset1">
			<data element_type="i64" shape="4" offset="15961660" size="32"/>
			<rt_info>
				<attribute name="fused_names" version="0" value="317, 318, Concat_55"/>
			</rt_info>
			<output>
				<port id="0" precision="I64">
					<dim>4</dim>
				</port>
			</output>
		</layer>
		<layer id="69" name="Reshape_56" type="Reshape" version="opset1">
			<data special_zero="true"/>
			<rt_info>
				<attribute name="fused_names" version="0" value="Reshape_56"/>
			</rt_info>
			<input>
				<port id="0" precision="FP32">
					<dim>1</dim>
					<dim>128</dim>
					<dim>128</dim>
				</port>
				<port id="1" precision="I64">
					<dim>4</dim>
				</port>
			</input>
			<output>
				<port id="2" precision="FP32" names="114">
					<dim>1</dim>
					<dim>128</dim>
					<dim>2</dim>
					<dim>64</dim>
				</port>
			</output>
		</layer>
		<layer id="70" name="Constant_252" type="Const" version="opset1">
			<data element_type="i64" shape="4" offset="15961692" size="32"/>
			<rt_info>
				<attribute name="fused_names" version="0" value="Constant_252"/>
			</rt_info>
			<output>
				<port id="0" precision="I64">
					<dim>4</dim>
				</port>
			</output>
		</layer>
		<layer id="71" name="Transpose_57" type="Transpose" version="opset1">
			<rt_info>
				<attribute name="fused_names" version="0" value="Transpose_57"/>
			</rt_info>
			<input>
				<port id="0" precision="FP32">
					<dim>1</dim>
					<dim>128</dim>
					<dim>2</dim>
					<dim>64</dim>
				</port>
				<port id="1" precision="I64">
					<dim>4</dim>
				</port>
			</input>
			<output>
				<port id="2" precision="FP32" names="115">
					<dim>1</dim>
					<dim>2</dim>
					<dim>128</dim>
					<dim>64</dim>
				</port>
			</output>
		</layer>
		<layer id="72" name="MatMul_75" type="MatMul" version="opset1">
			<data transpose_a="false" transpose_b="false"/>
			<rt_info>
				<attribute name="fused_names" version="0" value="MatMul_75"/>
			</rt_info>
			<input>
				<port id="0" precision="FP32">
					<dim>1</dim>
					<dim>2</dim>
					<dim>128</dim>
					<dim>128</dim>
				</port>
				<port id="1" precision="FP32">
					<dim>1</dim>
					<dim>2</dim>
					<dim>128</dim>
					<dim>64</dim>
				</port>
			</input>
			<output>
				<port id="2" precision="FP32" names="137">
					<dim>1</dim>
					<dim>2</dim>
					<dim>128</dim>
					<dim>64</dim>
				</port>
			</output>
		</layer>
		<layer id="73" name="Constant_325" type="Const" version="opset1">
			<data element_type="i64" shape="4" offset="15961692" size="32"/>
			<rt_info>
				<attribute name="fused_names" version="0" value="Constant_325"/>
			</rt_info>
			<output>
				<port id="0" precision="I64">
					<dim>4</dim>
				</port>
			</output>
		</layer>
		<layer id="74" name="Transpose_76" type="Transpose" version="opset1">
			<rt_info>
				<attribute name="fused_names" version="0" value="Transpose_76"/>
			</rt_info>
			<input>
				<port id="0" precision="FP32">
					<dim>1</dim>
					<dim>2</dim>
					<dim>128</dim>
					<dim>64</dim>
				</port>
				<port id="1" precision="I64">
					<dim>4</dim>
				</port>
			</input>
			<output>
				<port id="2" precision="FP32" names="138">
					<dim>1</dim>
					<dim>128</dim>
					<dim>2</dim>
					<dim>64</dim>
				</port>
			</output>
		</layer>
		<layer id="75" name="Concat_85" type="Const" version="opset1">
			<data element_type="i64" shape="3" offset="16093872" size="24"/>
			<rt_info>
				<attribute name="fused_names" version="0" value="321, Concat_85"/>
			</rt_info>
			<output>
				<port id="0" precision="I64">
					<dim>3</dim>
				</port>
			</output>
		</layer>
		<layer id="76" name="Reshape_86" type="Reshape" version="opset1">
			<data special_zero="true"/>
			<rt_info>
				<attribute name="fused_names" version="0" value="Reshape_86"/>
			</rt_info>
			<input>
				<port id="0" precision="FP32">
					<dim>1</dim>
					<dim>128</dim>
					<dim>2</dim>
					<dim>64</dim>
				</port>
				<port id="1" precision="I64">
					<dim>3</dim>
				</port>
			</input>
			<output>
				<port id="2" precision="FP32" names="150">
					<dim>1</dim>
					<dim>128</dim>
					<dim>128</dim>
				</port>
			</output>
		</layer>
		<layer id="77" name="Constant_5189" type="Const" version="opset1">
			<data element_type="f32" shape="128, 128" offset="16093896" size="65536"/>
			<rt_info>
				<attribute name="fused_names" version="0" value="322, MatMul_87"/>
			</rt_info>
			<output>
				<port id="0" precision="FP32">
					<dim>128</dim>
					<dim>128</dim>
				</port>
			</output>
		</layer>
		<layer id="78" name="MatMul_87" type="MatMul" version="opset1">
			<data transpose_a="false" transpose_b="true"/>
			<rt_info>
				<attribute name="fused_names" version="0" value="322, MatMul_87"/>
			</rt_info>
			<input>
				<port id="0" precision="FP32">
					<dim>1</dim>
					<dim>128</dim>
					<dim>128</dim>
				</port>
				<port id="1" precision="FP32">
					<dim>128</dim>
					<dim>128</dim>
				</port>
			</input>
			<output>
				<port id="2" precision="FP32" names="152">
					<dim>1</dim>
					<dim>128</dim>
					<dim>128</dim>
				</port>
			</output>
		</layer>
		<layer id="79" name="Constant_5418" type="Const" version="opset1">
			<data element_type="f32" shape="1, 1, 128" offset="16159432" size="512"/>
			<output>
				<port id="0" precision="FP32">
					<dim>1</dim>
					<dim>1</dim>
					<dim>128</dim>
				</port>
			</output>
		</layer>
		<layer id="80" name="Add_88" type="Add" version="opset1">
			<data auto_broadcast="numpy"/>
			<rt_info>
				<attribute name="fused_names" version="0" value="Add_88"/>
			</rt_info>
			<input>
				<port id="0" precision="FP32">
					<dim>1</dim>
					<dim>128</dim>
					<dim>128</dim>
				</port>
				<port id="1" precision="FP32">
					<dim>1</dim>
					<dim>1</dim>
					<dim>128</dim>
				</port>
			</input>
			<output>
				<port id="2" precision="FP32" names="153">
					<dim>1</dim>
					<dim>128</dim>
					<dim>128</dim>
				</port>
			</output>
		</layer>
		<layer id="81" name="Add_89" type="Add" version="opset1">
			<data auto_broadcast="numpy"/>
			<rt_info>
				<attribute name="fused_names" version="0" value="Add_89"/>
			</rt_info>
			<input>
				<port id="0" precision="FP32">
					<dim>1</dim>
					<dim>128</dim>
					<dim>128</dim>
				</port>
				<port id="1" precision="FP32">
					<dim>1</dim>
					<dim>128</dim>
					<dim>128</dim>
				</port>
			</input>
			<output>
				<port id="2" precision="FP32" names="154">
					<dim>1</dim>
					<dim>128</dim>
					<dim>128</dim>
				</port>
			</output>
		</layer>
		<layer id="82" name="Constant_388" type="Const" version="opset1">
			<data element_type="i64" shape="1" offset="15894580" size="8"/>
			<rt_info>
				<attribute name="fused_names" version="0" value="Constant_388"/>
			</rt_info>
			<output>
				<port id="0" precision="I64">
					<dim>1</dim>
				</port>
			</output>
		</layer>
		<layer id="83" name="Div_98" type="MVN" version="opset6">
			<data eps="9.999999960041972e-13" normalize_variance="true" eps_mode="INSIDE_SQRT"/>
			<rt_info>
				<attribute name="fused_names" version="0" value="Add_96, Div_98, Pow_93, ReduceMean_90, ReduceMean_94, Sqrt_97, Sub_91"/>
			</rt_info>
			<input>
				<port id="0" precision="FP32">
					<dim>1</dim>
					<dim>128</dim>
					<dim>128</dim>
				</port>
				<port id="1" precision="I64">
					<dim>1</dim>
				</port>
			</input>
			<output>
				<port id="2" precision="FP32" names="163">
					<dim>1</dim>
					<dim>128</dim>
					<dim>128</dim>
				</port>
			</output>
		</layer>
		<layer id="84" name="Constant_5419" type="Const" version="opset1">
			<data element_type="f32" shape="1, 1, 128" offset="16159944" size="512"/>
			<output>
				<port id="0" precision="FP32">
					<dim>1</dim>
					<dim>1</dim>
					<dim>128</dim>
				</port>
			</output>
		</layer>
		<layer id="85" name="Mul_99" type="Multiply" version="opset1">
			<data auto_broadcast="numpy"/>
			<rt_info>
				<attribute name="fused_names" version="0" value="Mul_99"/>
			</rt_info>
			<input>
				<port id="0" precision="FP32">
					<dim>1</dim>
					<dim>128</dim>
					<dim>128</dim>
				</port>
				<port id="1" precision="FP32">
					<dim>1</dim>
					<dim>1</dim>
					<dim>128</dim>
				</port>
			</input>
			<output>
				<port id="2" precision="FP32" names="164">
					<dim>1</dim>
					<dim>128</dim>
					<dim>128</dim>
				</port>
			</output>
		</layer>
		<layer id="86" name="Constant_5420" type="Const" version="opset1">
			<data element_type="f32" shape="1, 1, 128" offset="16160456" size="512"/>
			<output>
				<port id="0" precision="FP32">
					<dim>1</dim>
					<dim>1</dim>
					<dim>128</dim>
				</port>
			</output>
		</layer>
		<layer id="87" name="Add_100" type="Add" version="opset1">
			<data auto_broadcast="numpy"/>
			<rt_info>
				<attribute name="fused_names" version="0" value="Add_100"/>
			</rt_info>
			<input>
				<port id="0" precision="FP32">
					<dim>1</dim>
					<dim>128</dim>
					<dim>128</dim>
				</port>
				<port id="1" precision="FP32">
					<dim>1</dim>
					<dim>1</dim>
					<dim>128</dim>
				</port>
			</input>
			<output>
				<port id="2" precision="FP32" names="165">
					<dim>1</dim>
					<dim>128</dim>
					<dim>128</dim>
				</port>
			</output>
		</layer>
		<layer id="88" name="Constant_5197" type="Const" version="opset1">
			<data element_type="f32" shape="512, 128" offset="16160968" size="262144"/>
			<rt_info>
				<attribute name="fused_names" version="0" value="323, MatMul_101"/>
			</rt_info>
			<output>
				<port id="0" precision="FP32">
					<dim>512</dim>
					<dim>128</dim>
				</port>
			</output>
		</layer>
		<layer id="89" name="MatMul_101" type="MatMul" version="opset1">
			<data transpose_a="false" transpose_b="true"/>
			<rt_info>
				<attribute name="fused_names" version="0" value="323, MatMul_101"/>
			</rt_info>
			<input>
				<port id="0" precision="FP32">
					<dim>1</dim>
					<dim>128</dim>
					<dim>128</dim>
				</port>
				<port id="1" precision="FP32">
					<dim>512</dim>
					<dim>128</dim>
				</port>
			</input>
			<output>
				<port id="2" precision="FP32" names="167">
					<dim>1</dim>
					<dim>128</dim>
					<dim>512</dim>
				</port>
			</output>
		</layer>
		<layer id="90" name="Constant_5421" type="Const" version="opset1">
			<data element_type="f32" shape="1, 1, 512" offset="16423112" size="2048"/>
			<output>
				<port id="0" precision="FP32">
					<dim>1</dim>
					<dim>1</dim>
					<dim>512</dim>
				</port>
			</output>
		</layer>
		<layer id="91" name="Add_102" type="Add" version="opset1">
			<data auto_broadcast="numpy"/>
			<rt_info>
				<attribute name="fused_names" version="0" value="Add_102"/>
			</rt_info>
			<input>
				<port id="0" precision="FP32">
					<dim>1</dim>
					<dim>128</dim>
					<dim>512</dim>
				</port>
				<port id="1" precision="FP32">
					<dim>1</dim>
					<dim>1</dim>
					<dim>512</dim>
				</port>
			</input>
			<output>
				<port id="2" precision="FP32" names="168">
					<dim>1</dim>
					<dim>128</dim>
					<dim>512</dim>
				</port>
			</output>
		</layer>
		<layer id="92" name="Mul_110" type="Gelu" version="opset7">
			<data approximation_mode="ERF"/>
			<rt_info>
				<attribute name="fused_names" version="0" value="Add_107, Div_104, Erf_105, Mul_108, Mul_110"/>
			</rt_info>
			<input>
				<port id="0" precision="FP32">
					<dim>1</dim>
					<dim>128</dim>
					<dim>512</dim>
				</port>
			</input>
			<output>
				<port id="1" precision="FP32" names="176">
					<dim>1</dim>
					<dim>128</dim>
					<dim>512</dim>
				</port>
			</output>
		</layer>
		<layer id="93" name="Constant_5205" type="Const" version="opset1">
			<data element_type="f32" shape="128, 512" offset="16425160" size="262144"/>
			<rt_info>
				<attribute name="fused_names" version="0" value="324, MatMul_111"/>
			</rt_info>
			<output>
				<port id="0" precision="FP32">
					<dim>128</dim>
					<dim>512</dim>
				</port>
			</output>
		</layer>
		<layer id="94" name="MatMul_111" type="MatMul" version="opset1">
			<data transpose_a="false" transpose_b="true"/>
			<rt_info>
				<attribute name="fused_names" version="0" value="324, MatMul_111"/>
			</rt_info>
			<input>
				<port id="0" precision="FP32">
					<dim>1</dim>
					<dim>128</dim>
					<dim>512</dim>
				</port>
				<port id="1" precision="FP32">
					<dim>128</dim>
					<dim>512</dim>
				</port>
			</input>
			<output>
				<port id="2" precision="FP32" names="178">
					<dim>1</dim>
					<dim>128</dim>
					<dim>128</dim>
				</port>
			</output>
		</layer>
		<layer id="95" name="Constant_5422" type="Const" version="opset1">
			<data element_type="f32" shape="1, 1, 128" offset="16687304" size="512"/>
			<output>
				<port id="0" precision="FP32">
					<dim>1</dim>
					<dim>1</dim>
					<dim>128</dim>
				</port>
			</output>
		</layer>
		<layer id="96" name="Add_112" type="Add" version="opset1">
			<data auto_broadcast="numpy"/>
			<rt_info>
				<attribute name="fused_names" version="0" value="Add_112"/>
			</rt_info>
			<input>
				<port id="0" precision="FP32">
					<dim>1</dim>
					<dim>128</dim>
					<dim>128</dim>
				</port>
				<port id="1" precision="FP32">
					<dim>1</dim>
					<dim>1</dim>
					<dim>128</dim>
				</port>
			</input>
			<output>
				<port id="2" precision="FP32" names="179">
					<dim>1</dim>
					<dim>128</dim>
					<dim>128</dim>
				</port>
			</output>
		</layer>
		<layer id="97" name="Add_113" type="Add" version="opset1">
			<data auto_broadcast="numpy"/>
			<rt_info>
				<attribute name="fused_names" version="0" value="Add_113"/>
			</rt_info>
			<input>
				<port id="0" precision="FP32">
					<dim>1</dim>
					<dim>128</dim>
					<dim>128</dim>
				</port>
				<port id="1" precision="FP32">
					<dim>1</dim>
					<dim>128</dim>
					<dim>128</dim>
				</port>
			</input>
			<output>
				<port id="2" precision="FP32" names="180">
					<dim>1</dim>
					<dim>128</dim>
					<dim>128</dim>
				</port>
			</output>
		</layer>
		<layer id="98" name="Constant_414" type="Const" version="opset1">
			<data element_type="i64" shape="1" offset="15894580" size="8"/>
			<rt_info>
				<attribute name="fused_names" version="0" value="Constant_414"/>
			</rt_info>
			<output>
				<port id="0" precision="I64">
					<dim>1</dim>
				</port>
			</output>
		</layer>
		<layer id="99" name="Div_122" type="MVN" version="opset6">
			<data eps="9.999999960041972e-13" normalize_variance="true" eps_mode="INSIDE_SQRT"/>
			<rt_info>
				<attribute name="fused_names" version="0" value="Add_120, Div_122, Pow_117, ReduceMean_114, ReduceMean_118, Sqrt_121, Sub_115"/>
			</rt_info>
			<input>
				<port id="0" precision="FP32">
					<dim>1</dim>
					<dim>128</dim>
					<dim>128</dim>
				</port>
				<port id="1" precision="I64">
					<dim>1</dim>
				</port>
			</input>
			<output>
				<port id="2" precision="FP32" names="189">
					<dim>1</dim>
					<dim>128</dim>
					<dim>128</dim>
				</port>
			</output>
		</layer>
		<layer id="100" name="Constant_5423" type="Const" version="opset1">
			<data element_type="f32" shape="1, 1, 128" offset="16687816" size="512"/>
			<output>
				<port id="0" precision="FP32">
					<dim>1</dim>
					<dim>1</dim>
					<dim>128</dim>
				</port>
			</output>
		</layer>
		<layer id="101" name="Mul_123" type="Multiply" version="opset1">
			<data auto_broadcast="numpy"/>
			<rt_info>
				<attribute name="fused_names" version="0" value="Mul_123"/>
			</rt_info>
			<input>
				<port id="0" precision="FP32">
					<dim>1</dim>
					<dim>128</dim>
					<dim>128</dim>
				</port>
				<port id="1" precision="FP32">
					<dim>1</dim>
					<dim>1</dim>
					<dim>128</dim>
				</port>
			</input>
			<output>
				<port id="2" precision="FP32" names="190">
					<dim>1</dim>
					<dim>128</dim>
					<dim>128</dim>
				</port>
			</output>
		</layer>
		<layer id="102" name="Constant_5424" type="Const" version="opset1">
			<data element_type="f32" shape="1, 1, 128" offset="16688328" size="512"/>
			<output>
				<port id="0" precision="FP32">
					<dim>1</dim>
					<dim>1</dim>
					<dim>128</dim>
				</port>
			</output>
		</layer>
		<layer id="103" name="Add_124" type="Add" version="opset1">
			<data auto_broadcast="numpy"/>
			<rt_info>
				<attribute name="fused_names" version="0" value="Add_124"/>
			</rt_info>
			<input>
				<port id="0" precision="FP32">
					<dim>1</dim>
					<dim>128</dim>
					<dim>128</dim>
				</port>
				<port id="1" precision="FP32">
					<dim>1</dim>
					<dim>1</dim>
					<dim>128</dim>
				</port>
			</input>
			<output>
				<port id="2" precision="FP32" names="191">
					<dim>1</dim>
					<dim>128</dim>
					<dim>128</dim>
				</port>
			</output>
		</layer>
		<layer id="104" name="Constant_5213" type="Const" version="opset1">
			<data element_type="f32" shape="128, 128" offset="16688840" size="65536"/>
			<rt_info>
				<attribute name="fused_names" version="0" value="325, MatMul_125"/>
			</rt_info>
			<output>
				<port id="0" precision="FP32">
					<dim>128</dim>
					<dim>128</dim>
				</port>
			</output>
		</layer>
		<layer id="105" name="MatMul_125" type="MatMul" version="opset1">
			<data transpose_a="false" transpose_b="true"/>
			<rt_info>
				<attribute name="fused_names" version="0" value="325, MatMul_125"/>
			</rt_info>
			<input>
				<port id="0" precision="FP32">
					<dim>1</dim>
					<dim>128</dim>
					<dim>128</dim>
				</port>
				<port id="1" precision="FP32">
					<dim>128</dim>
					<dim>128</dim>
				</port>
			</input>
			<output>
				<port id="2" precision="FP32" names="193">
					<dim>1</dim>
					<dim>128</dim>
					<dim>128</dim>
				</port>
			</output>
		</layer>
		<layer id="106" name="Constant_5425" type="Const" version="opset1">
			<data element_type="f32" shape="1, 1, 128" offset="16754376" size="512"/>
			<output>
				<port id="0" precision="FP32">
					<dim>1</dim>
					<dim>1</dim>
					<dim>128</dim>
				</port>
			</output>
		</layer>
		<layer id="107" name="Add_126" type="Add" version="opset1">
			<data auto_broadcast="numpy"/>
			<rt_info>
				<attribute name="fused_names" version="0" value="Add_126"/>
			</rt_info>
			<input>
				<port id="0" precision="FP32">
					<dim>1</dim>
					<dim>128</dim>
					<dim>128</dim>
				</port>
				<port id="1" precision="FP32">
					<dim>1</dim>
					<dim>1</dim>
					<dim>128</dim>
				</port>
			</input>
			<output>
				<port id="2" precision="FP32" names="194">
					<dim>1</dim>
					<dim>128</dim>
					<dim>128</dim>
				</port>
			</output>
		</layer>
		<layer id="108" name="Concat_160" type="Const" version="opset1">
			<data element_type="i64" shape="4" offset="15961660" size="32"/>
			<rt_info>
				<attribute name="fused_names" version="0" value="332, 333, Concat_160"/>
			</rt_info>
			<output>
				<port id="0" precision="I64">
					<dim>4</dim>
				</port>
			</output>
		</layer>
		<layer id="109" name="Reshape_161" type="Reshape" version="opset1">
			<data special_zero="true"/>
			<rt_info>
				<attribute name="fused_names" version="0" value="Reshape_161"/>
			</rt_info>
			<input>
				<port id="0" precision="FP32">
					<dim>1</dim>
					<dim>128</dim>
					<dim>128</dim>
				</port>
				<port id="1" precision="I64">
					<dim>4</dim>
				</port>
			</input>
			<output>
				<port id="2" precision="FP32" names="243">
					<dim>1</dim>
					<dim>128</dim>
					<dim>2</dim>
					<dim>64</dim>
				</port>
			</output>
		</layer>
		<layer id="110" name="Constant_618" type="Const" version="opset1">
			<data element_type="i64" shape="4" offset="15961692" size="32"/>
			<rt_info>
				<attribute name="fused_names" version="0" value="Constant_618"/>
			</rt_info>
			<output>
				<port id="0" precision="I64">
					<dim>4</dim>
				</port>
			</output>
		</layer>
		<layer id="111" name="Transpose_162" type="Transpose" version="opset1">
			<rt_info>
				<attribute name="fused_names" version="0" value="Transpose_162"/>
			</rt_info>
			<input>
				<port id="0" precision="FP32">
					<dim>1</dim>
					<dim>128</dim>
					<dim>2</dim>
					<dim>64</dim>
				</port>
				<port id="1" precision="I64">
					<dim>4</dim>
				</port>
			</input>
			<output>
				<port id="2" precision="FP32" names="244">
					<dim>1</dim>
					<dim>2</dim>
					<dim>128</dim>
					<dim>64</dim>
				</port>
			</output>
		</layer>
		<layer id="112" name="Constant_5220" type="Const" version="opset1">
			<data element_type="f32" shape="128, 128" offset="16754888" size="65536"/>
			<rt_info>
				<attribute name="fused_names" version="0" value="326, MatMul_127"/>
			</rt_info>
			<output>
				<port id="0" precision="FP32">
					<dim>128</dim>
					<dim>128</dim>
				</port>
			</output>
		</layer>
		<layer id="113" name="MatMul_127" type="MatMul" version="opset1">
			<data transpose_a="false" transpose_b="true"/>
			<rt_info>
				<attribute name="fused_names" version="0" value="326, MatMul_127"/>
			</rt_info>
			<input>
				<port id="0" precision="FP32">
					<dim>1</dim>
					<dim>128</dim>
					<dim>128</dim>
				</port>
				<port id="1" precision="FP32">
					<dim>128</dim>
					<dim>128</dim>
				</port>
			</input>
			<output>
				<port id="2" precision="FP32" names="196">
					<dim>1</dim>
					<dim>128</dim>
					<dim>128</dim>
				</port>
			</output>
		</layer>
		<layer id="114" name="Constant_5426" type="Const" version="opset1">
			<data element_type="f32" shape="1, 1, 128" offset="16820424" size="512"/>
			<output>
				<port id="0" precision="FP32">
					<dim>1</dim>
					<dim>1</dim>
					<dim>128</dim>
				</port>
			</output>
		</layer>
		<layer id="115" name="Add_128" type="Add" version="opset1">
			<data auto_broadcast="numpy"/>
			<rt_info>
				<attribute name="fused_names" version="0" value="Add_128"/>
			</rt_info>
			<input>
				<port id="0" precision="FP32">
					<dim>1</dim>
					<dim>128</dim>
					<dim>128</dim>
				</port>
				<port id="1" precision="FP32">
					<dim>1</dim>
					<dim>1</dim>
					<dim>128</dim>
				</port>
			</input>
			<output>
				<port id="2" precision="FP32" names="197">
					<dim>1</dim>
					<dim>128</dim>
					<dim>128</dim>
				</port>
			</output>
		</layer>
		<layer id="116" name="Concat_137" type="Const" version="opset1">
			<data element_type="i64" shape="4" offset="15961660" size="32"/>
			<rt_info>
				<attribute name="fused_names" version="0" value="327, 328, Concat_137"/>
			</rt_info>
			<output>
				<port id="0" precision="I64">
					<dim>4</dim>
				</port>
			</output>
		</layer>
		<layer id="117" name="Reshape_138" type="Reshape" version="opset1">
			<data special_zero="true"/>
			<rt_info>
				<attribute name="fused_names" version="0" value="Reshape_138"/>
			</rt_info>
			<input>
				<port id="0" precision="FP32">
					<dim>1</dim>
					<dim>128</dim>
					<dim>128</dim>
				</port>
				<port id="1" precision="I64">
					<dim>4</dim>
				</port>
			</input>
			<output>
				<port id="2" precision="FP32" names="211">
					<dim>1</dim>
					<dim>128</dim>
					<dim>2</dim>
					<dim>64</dim>
				</port>
			</output>
		</layer>
		<layer id="118" name="Constant_620" type="Const" version="opset1">
			<data element_type="i64" shape="4" offset="16027772" size="32"/>
			<rt_info>
				<attribute name="fused_names" version="0" value="Constant_620"/>
			</rt_info>
			<output>
				<port id="0" precision="I64">
					<dim>4</dim>
				</port>
			</output>
		</layer>
		<layer id="119" name="Transpose_163" type="Transpose" version="opset1">
			<rt_info>
				<attribute name="fused_names" version="0" value="Transpose_163"/>
			</rt_info>
			<input>
				<port id="0" precision="FP32">
					<dim>1</dim>
					<dim>128</dim>
					<dim>2</dim>
					<dim>64</dim>
				</port>
				<port id="1" precision="I64">
					<dim>4</dim>
				</port>
			</input>
			<output>
				<port id="2" precision="FP32" names="245">
					<dim>1</dim>
					<dim>2</dim>
					<dim>64</dim>
					<dim>128</dim>
				</port>
			</output>
		</layer>
		<layer id="120" name="Constant_5427" type="Const" version="opset1">
			<data element_type="f32" shape="1, 1, 1, 1" offset="16027804" size="4"/>
			<output>
				<port id="0" precision="FP32">
					<dim>1</dim>
					<dim>1</dim>
					<dim>1</dim>
					<dim>1</dim>
				</port>
			</output>
		</layer>
		<layer id="121" name="Multiply_5281" type="Multiply" version="opset1">
			<data auto_broadcast="numpy"/>
			<rt_info>
				<attribute name="fused_names" version="0" value="Constant_165, Div_166, MatMul_164, Transpose_163"/>
			</rt_info>
			<input>
				<port id="0" precision="FP32">
					<dim>1</dim>
					<dim>2</dim>
					<dim>64</dim>
					<dim>128</dim>
				</port>
				<port id="1" precision="FP32">
					<dim>1</dim>
					<dim>1</dim>
					<dim>1</dim>
					<dim>1</dim>
				</port>
			</input>
			<output>
				<port id="2" precision="FP32">
					<dim>1</dim>
					<dim>2</dim>
					<dim>64</dim>
					<dim>128</dim>
				</port>
			</output>
		</layer>
		<layer id="122" name="Div_166" type="MatMul" version="opset1">
			<data transpose_a="false" transpose_b="false"/>
			<rt_info>
				<attribute name="fused_names" version="0" value="Constant_165, Div_166, MatMul_164, Transpose_163"/>
			</rt_info>
			<input>
				<port id="0" precision="FP32">
					<dim>1</dim>
					<dim>2</dim>
					<dim>128</dim>
					<dim>64</dim>
				</port>
				<port id="1" precision="FP32">
					<dim>1</dim>
					<dim>2</dim>
					<dim>64</dim>
					<dim>128</dim>
				</port>
			</input>
			<output>
				<port id="2" precision="FP32" names="248">
					<dim>1</dim>
					<dim>2</dim>
					<dim>128</dim>
					<dim>128</dim>
				</port>
			</output>
		</layer>
		<layer id="123" name="Add_167" type="Add" version="opset1">
			<data auto_broadcast="numpy"/>
			<rt_info>
				<attribute name="fused_names" version="0" value="Add_167"/>
			</rt_info>
			<input>
				<port id="0" precision="FP32">
					<dim>1</dim>
					<dim>2</dim>
					<dim>128</dim>
					<dim>128</dim>
				</port>
				<port id="1" precision="FP32">
					<dim>1</dim>
					<dim>1</dim>
					<dim>1</dim>
					<dim>128</dim>
				</port>
			</input>
			<output>
				<port id="2" precision="FP32" names="249">
					<dim>1</dim>
					<dim>2</dim>
					<dim>128</dim>
					<dim>128</dim>
				</port>
			</output>
		</layer>
		<layer id="124" name="Softmax_168" type="SoftMax" version="opset8">
			<data axis="3"/>
			<rt_info>
				<attribute name="fused_names" version="0" value="Softmax_168"/>
			</rt_info>
			<input>
				<port id="0" precision="FP32">
					<dim>1</dim>
					<dim>2</dim>
					<dim>128</dim>
					<dim>128</dim>
				</port>
			</input>
			<output>
				<port id="1" precision="FP32" names="250">
					<dim>1</dim>
					<dim>2</dim>
					<dim>128</dim>
					<dim>128</dim>
				</port>
			</output>
		</layer>
		<layer id="125" name="Constant_5227" type="Const" version="opset1">
			<data element_type="f32" shape="128, 128" offset="16820936" size="65536"/>
			<rt_info>
				<attribute name="fused_names" version="0" value="329, MatMul_139"/>
			</rt_info>
			<output>
				<port id="0" precision="FP32">
					<dim>128</dim>
					<dim>128</dim>
				</port>
			</output>
		</layer>
		<layer id="126" name="MatMul_139" type="MatMul" version="opset1">
			<data transpose_a="false" transpose_b="true"/>
			<rt_info>
				<attribute name="fused_names" version="0" value="329, MatMul_139"/>
			</rt_info>
			<input>
				<port id="0" precision="FP32">
					<dim>1</dim>
					<dim>128</dim>
					<dim>128</dim>
				</port>
				<port id="1" precision="FP32">
					<dim>128</dim>
					<dim>128</dim>
				</port>
			</input>
			<output>
				<port id="2" precision="FP32" names="213">
					<dim>1</dim>
					<dim>128</dim>
					<dim>128</dim>
				</port>
			</output>
		</layer>
		<layer id="127" name="Constant_5428" type="Const" version="opset1">
			<data element_type="f32" shape="1, 1, 128" offset="16886472" size="512"/>
			<output>
				<port id="0" precision="FP32">
					<dim>1</dim>
					<dim>1</dim>
					<dim>128</dim>
				</port>
			</output>
		</layer>
		<layer id="128" name="Add_140" type="Add" version="opset1">
			<data auto_broadcast="numpy"/>
			<rt_info>
				<attribute name="fused_names" version="0" value="Add_140"/>
			</rt_info>
			<input>
				<port id="0" precision="FP32">
					<dim>1</dim>
					<dim>128</dim>
					<dim>128</dim>
				</port>
				<port id="1" precision="FP32">
					<dim>1</dim>
					<dim>1</dim>
					<dim>128</dim>
				</port>
			</input>
			<output>
				<port id="2" precision="FP32" names="214">
					<dim>1</dim>
					<dim>128</dim>
					<dim>128</dim>
				</port>
			</output>
		</layer>
		<layer id="129" name="Concat_149" type="Const" version="opset1">
			<data element_type="i64" shape="4" offset="15961660" size="32"/>
			<rt_info>
				<attribute name="fused_names" version="0" value="330, 331, Concat_149"/>
			</rt_info>
			<output>
				<port id="0" precision="I64">
					<dim>4</dim>
				</port>
			</output>
		</layer>
		<layer id="130" name="Reshape_150" type="Reshape" version="opset1">
			<data special_zero="true"/>
			<rt_info>
				<attribute name="fused_names" version="0" value="Reshape_150"/>
			</rt_info>
			<input>
				<port id="0" precision="FP32">
					<dim>1</dim>
					<dim>128</dim>
					<dim>128</dim>
				</port>
				<port id="1" precision="I64">
					<dim>4</dim>
				</port>
			</input>
			<output>
				<port id="2" precision="FP32" names="228">
					<dim>1</dim>
					<dim>128</dim>
					<dim>2</dim>
					<dim>64</dim>
				</port>
			</output>
		</layer>
		<layer id="131" name="Constant_555" type="Const" version="opset1">
			<data element_type="i64" shape="4" offset="15961692" size="32"/>
			<rt_info>
				<attribute name="fused_names" version="0" value="Constant_555"/>
			</rt_info>
			<output>
				<port id="0" precision="I64">
					<dim>4</dim>
				</port>
			</output>
		</layer>
		<layer id="132" name="Transpose_151" type="Transpose" version="opset1">
			<rt_info>
				<attribute name="fused_names" version="0" value="Transpose_151"/>
			</rt_info>
			<input>
				<port id="0" precision="FP32">
					<dim>1</dim>
					<dim>128</dim>
					<dim>2</dim>
					<dim>64</dim>
				</port>
				<port id="1" precision="I64">
					<dim>4</dim>
				</port>
			</input>
			<output>
				<port id="2" precision="FP32" names="229">
					<dim>1</dim>
					<dim>2</dim>
					<dim>128</dim>
					<dim>64</dim>
				</port>
			</output>
		</layer>
		<layer id="133" name="MatMul_169" type="MatMul" version="opset1">
			<data transpose_a="false" transpose_b="false"/>
			<rt_info>
				<attribute name="fused_names" version="0" value="MatMul_169"/>
			</rt_info>
			<input>
				<port id="0" precision="FP32">
					<dim>1</dim>
					<dim>2</dim>
					<dim>128</dim>
					<dim>128</dim>
				</port>
				<port id="1" precision="FP32">
					<dim>1</dim>
					<dim>2</dim>
					<dim>128</dim>
					<dim>64</dim>
				</port>
			</input>
			<output>
				<port id="2" precision="FP32" names="251">
					<dim>1</dim>
					<dim>2</dim>
					<dim>128</dim>
					<dim>64</dim>
				</port>
			</output>
		</layer>
		<layer id="134" name="Constant_628" type="Const" version="opset1">
			<data element_type="i64" shape="4" offset="15961692" size="32"/>
			<rt_info>
				<attribute name="fused_names" version="0" value="Constant_628"/>
			</rt_info>
			<output>
				<port id="0" precision="I64">
					<dim>4</dim>
				</port>
			</output>
		</layer>
		<layer id="135" name="Transpose_170" type="Transpose" version="opset1">
			<rt_info>
				<attribute name="fused_names" version="0" value="Transpose_170"/>
			</rt_info>
			<input>
				<port id="0" precision="FP32">
					<dim>1</dim>
					<dim>2</dim>
					<dim>128</dim>
					<dim>64</dim>
				</port>
				<port id="1" precision="I64">
					<dim>4</dim>
				</port>
			</input>
			<output>
				<port id="2" precision="FP32" names="252">
					<dim>1</dim>
					<dim>128</dim>
					<dim>2</dim>
					<dim>64</dim>
				</port>
			</output>
		</layer>
		<layer id="136" name="Concat_179" type="Const" version="opset1">
			<data element_type="i64" shape="3" offset="16093872" size="24"/>
			<rt_info>
				<attribute name="fused_names" version="0" value="334, Concat_179"/>
			</rt_info>
			<output>
				<port id="0" precision="I64">
					<dim>3</dim>
				</port>
			</output>
		</layer>
		<layer id="137" name="Reshape_180" type="Reshape" version="opset1">
			<data special_zero="true"/>
			<rt_info>
				<attribute name="fused_names" version="0" value="Reshape_180"/>
			</rt_info>
			<input>
				<port id="0" precision="FP32">
					<dim>1</dim>
					<dim>128</dim>
					<dim>2</dim>
					<dim>64</dim>
				</port>
				<port id="1" precision="I64">
					<dim>3</dim>
				</port>
			</input>
			<output>
				<port id="2" precision="FP32" names="264">
					<dim>1</dim>
					<dim>128</dim>
					<dim>128</dim>
				</port>
			</output>
		</layer>
		<layer id="138" name="Constant_5234" type="Const" version="opset1">
			<data element_type="f32" shape="128, 128" offset="16886984" size="65536"/>
			<rt_info>
				<attribute name="fused_names" version="0" value="335, MatMul_181"/>
			</rt_info>
			<output>
				<port id="0" precision="FP32">
					<dim>128</dim>
					<dim>128</dim>
				</port>
			</output>
		</layer>
		<layer id="139" name="MatMul_181" type="MatMul" version="opset1">
			<data transpose_a="false" transpose_b="true"/>
			<rt_info>
				<attribute name="fused_names" version="0" value="335, MatMul_181"/>
			</rt_info>
			<input>
				<port id="0" precision="FP32">
					<dim>1</dim>
					<dim>128</dim>
					<dim>128</dim>
				</port>
				<port id="1" precision="FP32">
					<dim>128</dim>
					<dim>128</dim>
				</port>
			</input>
			<output>
				<port id="2" precision="FP32" names="266">
					<dim>1</dim>
					<dim>128</dim>
					<dim>128</dim>
				</port>
			</output>
		</layer>
		<layer id="140" name="Constant_5429" type="Const" version="opset1">
			<data element_type="f32" shape="1, 1, 128" offset="16952520" size="512"/>
			<output>
				<port id="0" precision="FP32">
					<dim>1</dim>
					<dim>1</dim>
					<dim>128</dim>
				</port>
			</output>
		</layer>
		<layer id="141" name="Add_182" type="Add" version="opset1">
			<data auto_broadcast="numpy"/>
			<rt_info>
				<attribute name="fused_names" version="0" value="Add_182"/>
			</rt_info>
			<input>
				<port id="0" precision="FP32">
					<dim>1</dim>
					<dim>128</dim>
					<dim>128</dim>
				</port>
				<port id="1" precision="FP32">
					<dim>1</dim>
					<dim>1</dim>
					<dim>128</dim>
				</port>
			</input>
			<output>
				<port id="2" precision="FP32" names="267">
					<dim>1</dim>
					<dim>128</dim>
					<dim>128</dim>
				</port>
			</output>
		</layer>
		<layer id="142" name="Add_183" type="Add" version="opset1">
			<data auto_broadcast="numpy"/>
			<rt_info>
				<attribute name="fused_names" version="0" value="Add_183"/>
			</rt_info>
			<input>
				<port id="0" precision="FP32">
					<dim>1</dim>
					<dim>128</dim>
					<dim>128</dim>
				</port>
				<port id="1" precision="FP32">
					<dim>1</dim>
					<dim>128</dim>
					<dim>128</dim>
				</port>
			</input>
			<output>
				<port id="2" precision="FP32" names="268">
					<dim>1</dim>
					<dim>128</dim>
					<dim>128</dim>
				</port>
			</output>
		</layer>
		<layer id="143" name="Constant_691" type="Const" version="opset1">
			<data element_type="i64" shape="1" offset="15894580" size="8"/>
			<rt_info>
				<attribute name="fused_names" version="0" value="Constant_691"/>
			</rt_info>
			<output>
				<port id="0" precision="I64">
					<dim>1</dim>
				</port>
			</output>
		</layer>
		<layer id="144" name="Div_192" type="MVN" version="opset6">
			<data eps="9.999999960041972e-13" normalize_variance="true" eps_mode="INSIDE_SQRT"/>
			<rt_info>
				<attribute name="fused_names" version="0" value="Add_190, Div_192, Pow_187, ReduceMean_184, ReduceMean_188, Sqrt_191, Sub_185"/>
			</rt_info>
			<input>
				<port id="0" precision="FP32">
					<dim>1</dim>
					<dim>128</dim>
					<dim>128</dim>
				</port>
				<port id="1" precision="I64">
					<dim>1</dim>
				</port>
			</input>
			<output>
				<port id="2" precision="FP32" names="277">
					<dim>1</dim>
					<dim>128</dim>
					<dim>128</dim>
				</port>
			</output>
		</layer>
		<layer id="145" name="Constant_5430" type="Const" version="opset1">
			<data element_type="f32" shape="1, 1, 128" offset="16953032" size="512"/>
			<output>
				<port id="0" precision="FP32">
					<dim>1</dim>
					<dim>1</dim>
					<dim>128</dim>
				</port>
			</output>
		</layer>
		<layer id="146" name="Mul_193" type="Multiply" version="opset1">
			<data auto_broadcast="numpy"/>
			<rt_info>
				<attribute name="fused_names" version="0" value="Mul_193"/>
			</rt_info>
			<input>
				<port id="0" precision="FP32">
					<dim>1</dim>
					<dim>128</dim>
					<dim>128</dim>
				</port>
				<port id="1" precision="FP32">
					<dim>1</dim>
					<dim>1</dim>
					<dim>128</dim>
				</port>
			</input>
			<output>
				<port id="2" precision="FP32" names="278">
					<dim>1</dim>
					<dim>128</dim>
					<dim>128</dim>
				</port>
			</output>
		</layer>
		<layer id="147" name="Constant_5431" type="Const" version="opset1">
			<data element_type="f32" shape="1, 1, 128" offset="16953544" size="512"/>
			<output>
				<port id="0" precision="FP32">
					<dim>1</dim>
					<dim>1</dim>
					<dim>128</dim>
				</port>
			</output>
		</layer>
		<layer id="148" name="Add_194" type="Add" version="opset1">
			<data auto_broadcast="numpy"/>
			<rt_info>
				<attribute name="fused_names" version="0" value="Add_194"/>
			</rt_info>
			<input>
				<port id="0" precision="FP32">
					<dim>1</dim>
					<dim>128</dim>
					<dim>128</dim>
				</port>
				<port id="1" precision="FP32">
					<dim>1</dim>
					<dim>1</dim>
					<dim>128</dim>
				</port>
			</input>
			<output>
				<port id="2" precision="FP32" names="279">
					<dim>1</dim>
					<dim>128</dim>
					<dim>128</dim>
				</port>
			</output>
		</layer>
		<layer id="149" name="Constant_5242" type="Const" version="opset1">
			<data element_type="f32" shape="512, 128" offset="16954056" size="262144"/>
			<rt_info>
				<attribute name="fused_names" version="0" value="336, MatMul_195"/>
			</rt_info>
			<output>
				<port id="0" precision="FP32">
					<dim>512</dim>
					<dim>128</dim>
				</port>
			</output>
		</layer>
		<layer id="150" name="MatMul_195" type="MatMul" version="opset1">
			<data transpose_a="false" transpose_b="true"/>
			<rt_info>
				<attribute name="fused_names" version="0" value="336, MatMul_195"/>
			</rt_info>
			<input>
				<port id="0" precision="FP32">
					<dim>1</dim>
					<dim>128</dim>
					<dim>128</dim>
				</port>
				<port id="1" precision="FP32">
					<dim>512</dim>
					<dim>128</dim>
				</port>
			</input>
			<output>
				<port id="2" precision="FP32" names="281">
					<dim>1</dim>
					<dim>128</dim>
					<dim>512</dim>
				</port>
			</output>
		</layer>
		<layer id="151" name="Constant_5432" type="Const" version="opset1">
			<data element_type="f32" shape="1, 1, 512" offset="17216200" size="2048"/>
			<output>
				<port id="0" precision="FP32">
					<dim>1</dim>
					<dim>1</dim>
					<dim>512</dim>
				</port>
			</output>
		</layer>
		<layer id="152" name="Add_196" type="Add" version="opset1">
			<data auto_broadcast="numpy"/>
			<rt_info>
				<attribute name="fused_names" version="0" value="Add_196"/>
			</rt_info>
			<input>
				<port id="0" precision="FP32">
					<dim>1</dim>
					<dim>128</dim>
					<dim>512</dim>
				</port>
				<port id="1" precision="FP32">
					<dim>1</dim>
					<dim>1</dim>
					<dim>512</dim>
				</port>
			</input>
			<output>
				<port id="2" precision="FP32" names="282">
					<dim>1</dim>
					<dim>128</dim>
					<dim>512</dim>
				</port>
			</output>
		</layer>
		<layer id="153" name="Mul_204" type="Gelu" version="opset7">
			<data approximation_mode="ERF"/>
			<rt_info>
				<attribute name="fused_names" version="0" value="Add_201, Div_198, Erf_199, Mul_202, Mul_204"/>
			</rt_info>
			<input>
				<port id="0" precision="FP32">
					<dim>1</dim>
					<dim>128</dim>
					<dim>512</dim>
				</port>
			</input>
			<output>
				<port id="1" precision="FP32" names="290">
					<dim>1</dim>
					<dim>128</dim>
					<dim>512</dim>
				</port>
			</output>
		</layer>
		<layer id="154" name="Constant_5250" type="Const" version="opset1">
			<data element_type="f32" shape="128, 512" offset="17218248" size="262144"/>
			<rt_info>
				<attribute name="fused_names" version="0" value="337, MatMul_205"/>
			</rt_info>
			<output>
				<port id="0" precision="FP32">
					<dim>128</dim>
					<dim>512</dim>
				</port>
			</output>
		</layer>
		<layer id="155" name="MatMul_205" type="MatMul" version="opset1">
			<data transpose_a="false" transpose_b="true"/>
			<rt_info>
				<attribute name="fused_names" version="0" value="337, MatMul_205"/>
			</rt_info>
			<input>
				<port id="0" precision="FP32">
					<dim>1</dim>
					<dim>128</dim>
					<dim>512</dim>
				</port>
				<port id="1" precision="FP32">
					<dim>128</dim>
					<dim>512</dim>
				</port>
			</input>
			<output>
				<port id="2" precision="FP32" names="292">
					<dim>1</dim>
					<dim>128</dim>
					<dim>128</dim>
				</port>
			</output>
		</layer>
		<layer id="156" name="Constant_5433" type="Const" version="opset1">
			<data element_type="f32" shape="1, 1, 128" offset="17480392" size="512"/>
			<output>
				<port id="0" precision="FP32">
					<dim>1</dim>
					<dim>1</dim>
					<dim>128</dim>
				</port>
			</output>
		</layer>
		<layer id="157" name="Add_206" type="Add" version="opset1">
			<data auto_broadcast="numpy"/>
			<rt_info>
				<attribute name="fused_names" version="0" value="Add_206"/>
			</rt_info>
			<input>
				<port id="0" precision="FP32">
					<dim>1</dim>
					<dim>128</dim>
					<dim>128</dim>
				</port>
				<port id="1" precision="FP32">
					<dim>1</dim>
					<dim>1</dim>
					<dim>128</dim>
				</port>
			</input>
			<output>
				<port id="2" precision="FP32" names="293">
					<dim>1</dim>
					<dim>128</dim>
					<dim>128</dim>
				</port>
			</output>
		</layer>
		<layer id="158" name="Add_207" type="Add" version="opset1">
			<data auto_broadcast="numpy"/>
			<rt_info>
				<attribute name="fused_names" version="0" value="Add_207"/>
			</rt_info>
			<input>
				<port id="0" precision="FP32">
					<dim>1</dim>
					<dim>128</dim>
					<dim>128</dim>
				</port>
				<port id="1" precision="FP32">
					<dim>1</dim>
					<dim>128</dim>
					<dim>128</dim>
				</port>
			</input>
			<output>
				<port id="2" precision="FP32" names="294">
					<dim>1</dim>
					<dim>128</dim>
					<dim>128</dim>
				</port>
			</output>
		</layer>
		<layer id="159" name="Constant_717" type="Const" version="opset1">
			<data element_type="i64" shape="1" offset="15894580" size="8"/>
			<rt_info>
				<attribute name="fused_names" version="0" value="Constant_717"/>
			</rt_info>
			<output>
				<port id="0" precision="I64">
					<dim>1</dim>
				</port>
			</output>
		</layer>
		<layer id="160" name="Div_216" type="MVN" version="opset6">
			<data eps="9.999999960041972e-13" normalize_variance="true" eps_mode="INSIDE_SQRT"/>
			<rt_info>
				<attribute name="fused_names" version="0" value="Add_214, Div_216, Pow_211, ReduceMean_208, ReduceMean_212, Sqrt_215, Sub_209"/>
			</rt_info>
			<input>
				<port id="0" precision="FP32">
					<dim>1</dim>
					<dim>128</dim>
					<dim>128</dim>
				</port>
				<port id="1" precision="I64">
					<dim>1</dim>
				</port>
			</input>
			<output>
				<port id="2" precision="FP32" names="303">
					<dim>1</dim>
					<dim>128</dim>
					<dim>128</dim>
				</port>
			</output>
		</layer>
		<layer id="161" name="Constant_5434" type="Const" version="opset1">
			<data element_type="f32" shape="1, 1, 128" offset="17480904" size="512"/>
			<output>
				<port id="0" precision="FP32">
					<dim>1</dim>
					<dim>1</dim>
					<dim>128</dim>
				</port>
			</output>
		</layer>
		<layer id="162" name="Mul_217" type="Multiply" version="opset1">
			<data auto_broadcast="numpy"/>
			<rt_info>
				<attribute name="fused_names" version="0" value="Mul_217"/>
			</rt_info>
			<input>
				<port id="0" precision="FP32">
					<dim>1</dim>
					<dim>128</dim>
					<dim>128</dim>
				</port>
				<port id="1" precision="FP32">
					<dim>1</dim>
					<dim>1</dim>
					<dim>128</dim>
				</port>
			</input>
			<output>
				<port id="2" precision="FP32" names="304">
					<dim>1</dim>
					<dim>128</dim>
					<dim>128</dim>
				</port>
			</output>
		</layer>
		<layer id="163" name="Constant_5435" type="Const" version="opset1">
			<data element_type="f32" shape="1, 1, 128" offset="17481416" size="512"/>
			<output>
				<port id="0" precision="FP32">
					<dim>1</dim>
					<dim>1</dim>
					<dim>128</dim>
				</port>
			</output>
		</layer>
		<layer id="164" name="last_hidden_state" type="Add" version="opset1">
			<data auto_broadcast="numpy"/>
			<rt_info>
				<attribute name="fused_names" version="0" value="last_hidden_state"/>
			</rt_info>
			<input>
				<port id="0" precision="FP32">
					<dim>1</dim>
					<dim>128</dim>
					<dim>128</dim>
				</port>
				<port id="1" precision="FP32">
					<dim>1</dim>
					<dim>1</dim>
					<dim>128</dim>
				</port>
			</input>
			<output>
				<port id="2" precision="FP32" names="last_hidden_state">
					<dim>1</dim>
					<dim>128</dim>
					<dim>128</dim>
				</port>
			</output>
		</layer>
		<layer id="165" name="Constant_219" type="Const" version="opset1">
			<data element_type="i64" shape="" offset="15627264" size="8"/>
			<rt_info>
				<attribute name="fused_names" version="0" value="Constant_219"/>
			</rt_info>
			<output>
				<port id="0" precision="I64" names="306"/>
			</output>
		</layer>
		<layer id="166" name="Constant_731" type="Const" version="opset1">
			<data element_type="i64" shape="" offset="15894552" size="8"/>
			<rt_info>
				<attribute name="fused_names" version="0" value="Constant_731"/>
			</rt_info>
			<output>
				<port id="0" precision="I64"/>
			</output>
		</layer>
		<layer id="167" name="Gather_220" type="Gather" version="opset8">
			<data batch_dims="0"/>
			<rt_info>
				<attribute name="fused_names" version="0" value="Gather_220"/>
			</rt_info>
			<input>
				<port id="0" precision="FP32">
					<dim>1</dim>
					<dim>128</dim>
					<dim>128</dim>
				</port>
				<port id="1" precision="I64"/>
				<port id="2" precision="I64"/>
			</input>
			<output>
				<port id="3" precision="FP32" names="307">
					<dim>1</dim>
					<dim>128</dim>
				</port>
			</output>
		</layer>
		<layer id="168" name="pooler.dense.weight" type="Const" version="opset1">
			<data element_type="f32" shape="128, 128" offset="17481928" size="65536"/>
			<rt_info>
				<attribute name="fused_names" version="0" value="pooler.dense.weight"/>
			</rt_info>
			<output>
				<port id="0" precision="FP32" names="pooler.dense.weight">
					<dim>128</dim>
					<dim>128</dim>
				</port>
			</output>
		</layer>
		<layer id="169" name="Gemm_221/WithoutBiases" type="MatMul" version="opset1">
			<data transpose_a="false" transpose_b="true"/>
			<rt_info>
				<attribute name="fused_names" version="0" value="Gemm_221/WithoutBiases, Multiply_736"/>
			</rt_info>
			<input>
				<port id="0" precision="FP32">
					<dim>1</dim>
					<dim>128</dim>
				</port>
				<port id="1" precision="FP32">
					<dim>128</dim>
					<dim>128</dim>
				</port>
			</input>
			<output>
				<port id="2" precision="FP32">
					<dim>1</dim>
					<dim>128</dim>
				</port>
			</output>
		</layer>
		<layer id="170" name="Constant_5436" type="Const" version="opset1">
			<data element_type="f32" shape="1, 128" offset="17547464" size="512"/>
			<output>
				<port id="0" precision="FP32">
					<dim>1</dim>
					<dim>128</dim>
				</port>
			</output>
		</layer>
		<layer id="171" name="Gemm_221" type="Add" version="opset1">
			<data auto_broadcast="numpy"/>
			<rt_info>
				<attribute name="fused_names" version="0" value="Gemm_221, Multiply_737"/>
			</rt_info>
			<input>
				<port id="0" precision="FP32">
					<dim>1</dim>
					<dim>128</dim>
				</port>
				<port id="1" precision="FP32">
					<dim>1</dim>
					<dim>128</dim>
				</port>
			</input>
			<output>
				<port id="2" precision="FP32" names="308">
					<dim>1</dim>
					<dim>128</dim>
				</port>
			</output>
		</layer>
		<layer id="172" name="309" type="Tanh" version="opset1">
			<rt_info>
				<attribute name="fused_names" version="0" value="309"/>
			</rt_info>
			<input>
				<port id="0" precision="FP32">
					<dim>1</dim>
					<dim>128</dim>
				</port>
			</input>
			<output>
				<port id="1" precision="FP32" names="309">
					<dim>1</dim>
					<dim>128</dim>
				</port>
			</output>
		</layer>
		<layer id="174" name="last_hidden_state/sink_port_0" type="Result" version="opset1">
			<rt_info>
				<attribute name="fused_names" version="0" value="last_hidden_state/sink_port_0"/>
			</rt_info>
			<input>
				<port id="0" precision="FP32">
					<dim>1</dim>
					<dim>128</dim>
					<dim>128</dim>
				</port>
			</input>
		</layer>
		<layer id="173" name="309/sink_port_0" type="Result" version="opset1">
			<rt_info>
				<attribute name="fused_names" version="0" value="309/sink_port_0"/>
			</rt_info>
			<input>
				<port id="0" precision="FP32">
					<dim>1</dim>
					<dim>128</dim>
				</port>
			</input>
		</layer>
	</layers>
	<edges>
		<edge from-layer="0" from-port="0" to-layer="8" to-port="1"/>
		<edge from-layer="1" from-port="0" to-layer="55" to-port="0"/>
		<edge from-layer="2" from-port="0" to-layer="5" to-port="1"/>
		<edge from-layer="2" from-port="0" to-layer="15" to-port="0"/>
		<edge from-layer="3" from-port="0" to-layer="5" to-port="0"/>
		<edge from-layer="4" from-port="0" to-layer="5" to-port="2"/>
		<edge from-layer="5" from-port="3" to-layer="9" to-port="0"/>
		<edge from-layer="6" from-port="0" to-layer="8" to-port="0"/>
		<edge from-layer="7" from-port="0" to-layer="8" to-port="2"/>
		<edge from-layer="8" from-port="3" to-layer="9" to-port="1"/>
		<edge from-layer="9" from-port="2" to-layer="27" to-port="0"/>
		<edge from-layer="10" from-port="0" to-layer="26" to-port="0"/>
		<edge from-layer="11" from-port="0" to-layer="24" to-port="0"/>
		<edge from-layer="12" from-port="0" to-layer="24" to-port="1"/>
		<edge from-layer="13" from-port="0" to-layer="22" to-port="0"/>
		<edge from-layer="14" from-port="0" to-layer="22" to-port="1"/>
		<edge from-layer="15" from-port="1" to-layer="18" to-port="0"/>
		<edge from-layer="16" from-port="0" to-layer="18" to-port="1"/>
		<edge from-layer="17" from-port="0" to-layer="18" to-port="2"/>
		<edge from-layer="18" from-port="3" to-layer="20" to-port="0"/>
		<edge from-layer="19" from-port="0" to-layer="20" to-port="1"/>
		<edge from-layer="20" from-port="2" to-layer="22" to-port="2"/>
		<edge from-layer="21" from-port="0" to-layer="22" to-port="3"/>
		<edge from-layer="22" from-port="4" to-layer="24" to-port="2"/>
		<edge from-layer="23" from-port="0" to-layer="24" to-port="3"/>
		<edge from-layer="24" from-port="4" to-layer="26" to-port="1"/>
		<edge from-layer="25" from-port="0" to-layer="26" to-port="2"/>
		<edge from-layer="26" from-port="3" to-layer="27" to-port="1"/>
		<edge from-layer="27" from-port="2" to-layer="29" to-port="0"/>
		<edge from-layer="28" from-port="0" to-layer="29" to-port="1"/>
		<edge from-layer="29" from-port="2" to-layer="31" to-port="0"/>
		<edge from-layer="30" from-port="0" to-layer="31" to-port="1"/>
		<edge from-layer="31" from-port="2" to-layer="33" to-port="0"/>
		<edge from-layer="32" from-port="0" to-layer="33" to-port="1"/>
		<edge from-layer="33" from-port="2" to-layer="35" to-port="0"/>
		<edge from-layer="33" from-port="2" to-layer="43" to-port="0"/>
		<edge from-layer="33" from-port="2" to-layer="81" to-port="1"/>
		<edge from-layer="33" from-port="2" to-layer="65" to-port="0"/>
		<edge from-layer="34" from-port="0" to-layer="35" to-port="1"/>
		<edge from-layer="35" from-port="2" to-layer="37" to-port="0"/>
		<edge from-layer="36" from-port="0" to-layer="37" to-port="1"/>
		<edge from-layer="37" from-port="2" to-layer="39" to-port="0"/>
		<edge from-layer="38" from-port="0" to-layer="39" to-port="1"/>
		<edge from-layer="39" from-port="2" to-layer="41" to-port="0"/>
		<edge from-layer="40" from-port="0" to-layer="41" to-port="1"/>
		<edge from-layer="41" from-port="2" to-layer="52" to-port="0"/>
		<edge from-layer="42" from-port="0" to-layer="43" to-port="1"/>
		<edge from-layer="43" from-port="2" to-layer="45" to-port="0"/>
		<edge from-layer="44" from-port="0" to-layer="45" to-port="1"/>
		<edge from-layer="45" from-port="2" to-layer="47" to-port="0"/>
		<edge from-layer="46" from-port="0" to-layer="47" to-port="1"/>
		<edge from-layer="47" from-port="2" to-layer="49" to-port="0"/>
		<edge from-layer="48" from-port="0" to-layer="49" to-port="1"/>
		<edge from-layer="49" from-port="2" to-layer="51" to-port="0"/>
		<edge from-layer="50" from-port="0" to-layer="51" to-port="1"/>
		<edge from-layer="51" from-port="2" to-layer="52" to-port="1"/>
		<edge from-layer="52" from-port="2" to-layer="62" to-port="0"/>
		<edge from-layer="53" from-port="0" to-layer="59" to-port="0"/>
		<edge from-layer="54" from-port="0" to-layer="55" to-port="1"/>
		<edge from-layer="55" from-port="2" to-layer="57" to-port="0"/>
		<edge from-layer="56" from-port="0" to-layer="57" to-port="1"/>
		<edge from-layer="57" from-port="2" to-layer="58" to-port="0"/>
		<edge from-layer="58" from-port="1" to-layer="59" to-port="1"/>
		<edge from-layer="59" from-port="2" to-layer="61" to-port="0"/>
		<edge from-layer="60" from-port="0" to-layer="61" to-port="1"/>
		<edge from-layer="61" from-port="2" to-layer="62" to-port="1"/>
		<edge from-layer="61" from-port="2" to-layer="123" to-port="1"/>
		<edge from-layer="62" from-port="2" to-layer="63" to-port="0"/>
		<edge from-layer="63" from-port="1" to-layer="72" to-port="0"/>
		<edge from-layer="64" from-port="0" to-layer="65" to-port="1"/>
		<edge from-layer="65" from-port="2" to-layer="67" to-port="0"/>
		<edge from-layer="66" from-port="0" to-layer="67" to-port="1"/>
		<edge from-layer="67" from-port="2" to-layer="69" to-port="0"/>
		<edge from-layer="68" from-port="0" to-layer="69" to-port="1"/>
		<edge from-layer="69" from-port="2" to-layer="71" to-port="0"/>
		<edge from-layer="70" from-port="0" to-layer="71" to-port="1"/>
		<edge from-layer="71" from-port="2" to-layer="72" to-port="1"/>
		<edge from-layer="72" from-port="2" to-layer="74" to-port="0"/>
		<edge from-layer="73" from-port="0" to-layer="74" to-port="1"/>
		<edge from-layer="74" from-port="2" to-layer="76" to-port="0"/>
		<edge from-layer="75" from-port="0" to-layer="76" to-port="1"/>
		<edge from-layer="76" from-port="2" to-layer="78" to-port="0"/>
		<edge from-layer="77" from-port="0" to-layer="78" to-port="1"/>
		<edge from-layer="78" from-port="2" to-layer="80" to-port="0"/>
		<edge from-layer="79" from-port="0" to-layer="80" to-port="1"/>
		<edge from-layer="80" from-port="2" to-layer="81" to-port="0"/>
		<edge from-layer="81" from-port="2" to-layer="83" to-port="0"/>
		<edge from-layer="82" from-port="0" to-layer="83" to-port="1"/>
		<edge from-layer="83" from-port="2" to-layer="85" to-port="0"/>
		<edge from-layer="84" from-port="0" to-layer="85" to-port="1"/>
		<edge from-layer="85" from-port="2" to-layer="87" to-port="0"/>
		<edge from-layer="86" from-port="0" to-layer="87" to-port="1"/>
		<edge from-layer="87" from-port="2" to-layer="89" to-port="0"/>
		<edge from-layer="87" from-port="2" to-layer="97" to-port="1"/>
		<edge from-layer="88" from-port="0" to-layer="89" to-port="1"/>
		<edge from-layer="89" from-port="2" to-layer="91" to-port="0"/>
		<edge from-layer="90" from-port="0" to-layer="91" to-port="1"/>
		<edge from-layer="91" from-port="2" to-layer="92" to-port="0"/>
		<edge from-layer="92" from-port="1" to-layer="94" to-port="0"/>
		<edge from-layer="93" from-port="0" to-layer="94" to-port="1"/>
		<edge from-layer="94" from-port="2" to-layer="96" to-port="0"/>
		<edge from-layer="95" from-port="0" to-layer="96" to-port="1"/>
		<edge from-layer="96" from-port="2" to-layer="97" to-port="0"/>
		<edge from-layer="97" from-port="2" to-layer="99" to-port="0"/>
		<edge from-layer="98" from-port="0" to-layer="99" to-port="1"/>
		<edge from-layer="99" from-port="2" to-layer="101" to-port="0"/>
		<edge from-layer="100" from-port="0" to-layer="101" to-port="1"/>
		<edge from-layer="101" from-port="2" to-layer="103" to-port="0"/>
		<edge from-layer="102" from-port="0" to-layer="103" to-port="1"/>
		<edge from-layer="103" from-port="2" to-layer="142" to-port="1"/>
		<edge from-layer="103" from-port="2" to-layer="113" to-port="0"/>
		<edge from-layer="103" from-port="2" to-layer="105" to-port="0"/>
		<edge from-layer="103" from-port="2" to-layer="126" to-port="0"/>
		<edge from-layer="104" from-port="0" to-layer="105" to-port="1"/>
		<edge from-layer="105" from-port="2" to-layer="107" to-port="0"/>
		<edge from-layer="106" from-port="0" to-layer="107" to-port="1"/>
		<edge from-layer="107" from-port="2" to-layer="109" to-port="0"/>
		<edge from-layer="108" from-port="0" to-layer="109" to-port="1"/>
		<edge from-layer="109" from-port="2" to-layer="111" to-port="0"/>
		<edge from-layer="110" from-port="0" to-layer="111" to-port="1"/>
		<edge from-layer="111" from-port="2" to-layer="122" to-port="0"/>
		<edge from-layer="112" from-port="0" to-layer="113" to-port="1"/>
		<edge from-layer="113" from-port="2" to-layer="115" to-port="0"/>
		<edge from-layer="114" from-port="0" to-layer="115" to-port="1"/>
		<edge from-layer="115" from-port="2" to-layer="117" to-port="0"/>
		<edge from-layer="116" from-port="0" to-layer="117" to-port="1"/>
		<edge from-layer="117" from-port="2" to-layer="119" to-port="0"/>
		<edge from-layer="118" from-port="0" to-layer="119" to-port="1"/>
		<edge from-layer="119" from-port="2" to-layer="121" to-port="0"/>
		<edge from-layer="120" from-port="0" to-layer="121" to-port="1"/>
		<edge from-layer="121" from-port="2" to-layer="122" to-port="1"/>
		<edge from-layer="122" from-port="2" to-layer="123" to-port="0"/>
		<edge from-layer="123" from-port="2" to-layer="124" to-port="0"/>
		<edge from-layer="124" from-port="1" to-layer="133" to-port="0"/>
		<edge from-layer="125" from-port="0" to-layer="126" to-port="1"/>
		<edge from-layer="126" from-port="2" to-layer="128" to-port="0"/>
		<edge from-layer="127" from-port="0" to-layer="128" to-port="1"/>
		<edge from-layer="128" from-port="2" to-layer="130" to-port="0"/>
		<edge from-layer="129" from-port="0" to-layer="130" to-port="1"/>
		<edge from-layer="130" from-port="2" to-layer="132" to-port="0"/>
		<edge from-layer="131" from-port="0" to-layer="132" to-port="1"/>
		<edge from-layer="132" from-port="2" to-layer="133" to-port="1"/>
		<edge from-layer="133" from-port="2" to-layer="135" to-port="0"/>
		<edge from-layer="134" from-port="0" to-layer="135" to-port="1"/>
		<edge from-layer="135" from-port="2" to-layer="137" to-port="0"/>
		<edge from-layer="136" from-port="0" to-layer="137" to-port="1"/>
		<edge from-layer="137" from-port="2" to-layer="139" to-port="0"/>
		<edge from-layer="138" from-port="0" to-layer="139" to-port="1"/>
		<edge from-layer="139" from-port="2" to-layer="141" to-port="0"/>
		<edge from-layer="140" from-port="0" to-layer="141" to-port="1"/>
		<edge from-layer="141" from-port="2" to-layer="142" to-port="0"/>
		<edge from-layer="142" from-port="2" to-layer="144" to-port="0"/>
		<edge from-layer="143" from-port="0" to-layer="144" to-port="1"/>
		<edge from-layer="144" from-port="2" to-layer="146" to-port="0"/>
		<edge from-layer="145" from-port="0" to-layer="146" to-port="1"/>
		<edge from-layer="146" from-port="2" to-layer="148" to-port="0"/>
		<edge from-layer="147" from-port="0" to-layer="148" to-port="1"/>
		<edge from-layer="148" from-port="2" to-layer="150" to-port="0"/>
		<edge from-layer="148" from-port="2" to-layer="158" to-port="1"/>
		<edge from-layer="149" from-port="0" to-layer="150" to-port="1"/>
		<edge from-layer="150" from-port="2" to-layer="152" to-port="0"/>
		<edge from-layer="151" from-port="0" to-layer="152" to-port="1"/>
		<edge from-layer="152" from-port="2" to-layer="153" to-port="0"/>
		<edge from-layer="153" from-port="1" to-layer="155" to-port="0"/>
		<edge from-layer="154" from-port="0" to-layer="155" to-port="1"/>
		<edge from-layer="155" from-port="2" to-layer="157" to-port="0"/>
		<edge from-layer="156" from-port="0" to-layer="157" to-port="1"/>
		<edge from-layer="157" from-port="2" to-layer="158" to-port="0"/>
		<edge from-layer="158" from-port="2" to-layer="160" to-port="0"/>
		<edge from-layer="159" from-port="0" to-layer="160" to-port="1"/>
		<edge from-layer="160" from-port="2" to-layer="162" to-port="0"/>
		<edge from-layer="161" from-port="0" to-layer="162" to-port="1"/>
		<edge from-layer="162" from-port="2" to-layer="164" to-port="0"/>
		<edge from-layer="163" from-port="0" to-layer="164" to-port="1"/>
		<edge from-layer="164" from-port="2" to-layer="167" to-port="0"/>
		<edge from-layer="164" from-port="2" to-layer="174" to-port="0"/>
		<edge from-layer="165" from-port="0" to-layer="167" to-port="1"/>
		<edge from-layer="166" from-port="0" to-layer="167" to-port="2"/>
		<edge from-layer="167" from-port="3" to-layer="169" to-port="0"/>
		<edge from-layer="168" from-port="0" to-layer="169" to-port="1"/>
		<edge from-layer="169" from-port="2" to-layer="171" to-port="0"/>
		<edge from-layer="170" from-port="0" to-layer="171" to-port="1"/>
		<edge from-layer="171" from-port="2" to-layer="172" to-port="0"/>
		<edge from-layer="172" from-port="1" to-layer="173" to-port="0"/>
	</edges>
	<meta_data>
		<MO_version value="2022.2.0-7713-af16ea1d79a-releases/2022/2"/>
		<Runtime_version value="2022.2.0-7713-af16ea1d79a-releases/2022/2"/>
		<legacy_path value="False"/>
		<cli_parameters>
			<caffe_parser_path value="DIR"/>
			<compress_fp16 value="False"/>
			<data_type value="float"/>
			<disable_nhwc_to_nchw value="False"/>
			<disable_omitting_optional value="False"/>
			<disable_resnet_optimization value="False"/>
			<disable_weights_compression value="False"/>
			<enable_concat_optimization value="False"/>
			<enable_flattening_nested_params value="False"/>
			<enable_ssd_gluoncv value="False"/>
			<extensions value="DIR"/>
			<framework value="onnx"/>
			<freeze_placeholder_with_value value="{}"/>
			<input value="input_ids,attention_mask,token_type_ids"/>
			<input_model value="DIR/bert-tiny-uncased.onnx"/>
			<input_model_is_text value="False"/>
			<input_shape value="[1,128],[1,128],[1,128]"/>
			<k value="DIR/CustomLayersMapping.xml"/>
			<layout value="()"/>
			<layout_values value="{}"/>
			<legacy_mxnet_model value="False"/>
			<log_level value="ERROR"/>
			<mean_scale_values value="{}"/>
			<mean_values value="()"/>
			<model_name value="bert-tiny-uncased"/>
			<output_dir value="DIR"/>
			<placeholder_data_types value="{}"/>
			<placeholder_shapes value="{'input_ids': (1, 128), 'attention_mask': (1, 128), 'token_type_ids': (1, 128)}"/>
			<progress value="False"/>
			<remove_memory value="False"/>
			<remove_output_softmax value="False"/>
			<reverse_input_channels value="False"/>
			<save_params_from_nd value="False"/>
			<scale_values value="()"/>
			<silent value="False"/>
			<source_layout value="()"/>
			<static_shape value="False"/>
			<stream_output value="False"/>
			<target_layout value="()"/>
			<transform value=""/>
			<use_legacy_frontend value="False"/>
			<use_new_frontend value="False"/>
			<unset unset_cli_parameters="batch, counts, disable_fusing, finegrain_fusing, input_checkpoint, input_meta_graph, input_proto, input_symbol, mean_file, mean_file_offsets, nd_prefix_name, output, pretrained_model_name, saved_model_dir, saved_model_tags, scale, tensorboard_logdir, tensorflow_custom_layer_libraries, tensorflow_custom_operations_config_update, tensorflow_object_detection_api_pipeline_config, tensorflow_use_custom_operations_config, transformations_config"/>
		</cli_parameters>
	</meta_data>
</net>
